memory_prediction/best_model.pt (torch, 122177 bytes, 11 tensors)

node_encoder.0.weight f4 [64, 9]
00000000: 2b18 7f3e 7187 403e 7419 96be 46b7 9b3b
00000010: df26 3cbe 1bb6 b3be e1bc d3bc 220b 663d
00000020: 5cae 9d3e a267 a1be 6de9 993e 3a89 3a3e
00000030: a021 f33d 40b6 9f3e 91ff 13be 44c8 5f3e
00000040: f685 813e 50aa 49be 9f95 513e e4ce 8f3e
00000050: 8e30 95bc 413c d93d 2d19 94be 66df 273e
00000060: 6101 3c3e a32d 66be 909f df3d af2f 81be
00000070: 4b5b f53d 3122 f53d 8594 7e3e 9b57 c0bd
00000080: fb09 803e c6d6 ae3d d878 823e 1034 8e3d
00000090: be10 46bd c907 1c3e 3008 0cbe 02d1 53be
000000a0: 1090 d7bd 5a55 cd3d 160f a9bd 44d7 233e
000000b0: a845 433e 3e4a 2ebe 4885 88be 0c9d dcba
000000c0: 0426 273e 144a b1bd 9e01 14be eef5 163d
000000d0: 4a6a a039 863b 65be 7ce0 67bd ce49 6c3d
000000e0: e6a2 fc3c 44f1 353d eff0 a0be 1d47 0d3e
000000f0: faaa aa3d 0764 873c 4b58 093e 6e51 6c3e
00000100: f6a1 45be 0b34 8bbe 8f18 5b3e f598 5cbe
00000110: bb65 323e cd5d 3d3e 9a72 613e 9e70 083e
00000120: 03f3 bb3d 3569 7fbe 6880 8f3e 8ea4 263e
00000130: c64c 93be ab69 853b e0c1 ef3d 9577 813e
00000140: 000b 1bbd 0989 8dbe be61 833e e0a3 223e
00000150: 08f8 c3bc 5378 b0be 4275 23be 0ba0 8bbe
00000160: dee6 b8bd 2b7d fdbc c869 68be 7490 7b3e
00000170: d1dc 05be 93b0 1fbe d519 30bd 00ab 03be
00000180: 1c92 a6be a5f5 c7bd 30c0 913d 65af a6be
00000190: 7bb7 703d f8c1 cf3d e7b9 f63d 9f9d 00be
000001a0: f27e 193e 4098 24bd a2db f73d d674 683d
000001b0: 3ae4 e2bc 6a0a 0e3c a52b 93be 02e0 9e3e
000001c0: adb2 9bbe df59 b1bc 8906 73be 4189 223e
000001d0: 3e27 62be 2cdd 1ebd 894b b8bd 082d 9c3d
000001e0: 88fd 30be 651b b4bd 6489 8e3e 5ea1 6ebd
000001f0: 29ce 293e 6bc5 363d b0d2 bbbd 6b10 173d
00000200: ab38 1fbe a07b 85be 800d a1be c631 73be
00000210: 6e6f 3ebe e49e 88be 98f6 12be 159c 7f3d
00000220: 4e4f 93be 90f6 9cbe 54b1 2d3d 721b 9a3e
00000230: b37e a23e 052e 4dbd 6f07 16be 1624 353d
00000240: d2f7 14be 6063 43be 3e87 983e baad 623e
00000250: 698d 2f3b 52e6 83be 51c4 073e 4fdc 11be
00000260: 8016 aa3c 08fb ff3d 3e99 983e 2563 9d3e
00000270: 78ac be3d 861d e73d 2c0b 95be c87b 853d
00000280: 1957 ebbd 7e60 62be 558f 813d 352e 843d
00000290: 44af 50be 48ad 633e ffac f0bc 336c a4be
000002a0: 83f4 70be 623f fcbb 2b46 c03d 068f 17be
000002b0: f8bf a8bc e56f 983e 84dc f53d 820c 73be
000002c0: 91c7 5e3e 53d1 673e 22aa 903e ebfb 3cbd
000002d0: 1355 97be 4c2b 45be 2a98 7fbe 7dfb 1f3d
000002e0: 9965 5c3e 1454 903e 1e8b 443e f8b9 6e3e
000002f0: 284e a6be 6d44 26be b5d1 813e 8ee1 7e3e
00000300: a865 33be 6bfb 9bbe 5adb 90be 72ba 9f3e
00000310: 88bc 9abe 1cbc 89be 4144 753e 86f2 1ebe
00000320: e624 5fbe 49fd 9d3e 46b8 c9bd a2b8 893e
00000330: 82d0 61be 494b 55be 1e2d 6f3e 2d71 433e
00000340: 13e8 f5bd f933 983e c7b9 753e 9e4f 10be
00000350: 2b27 ddbc 0d89 543d c669 153e 96ce bbbc
00000360: 708e 1fbe 7050 863e cbe3 80be bbac b3be
00000370: d02f 75be ed3d a5be 8186 393c ac79 ed3a
00000380: 6b1a 04be cbcc 8740 d89d 083e 0e9e 1fbe
00000390: 85ba 8bbb 7204 3fbe ab48 b7be d1ff 7a40
000003a0: 46eb 86be 5c6e 84be 61bb d23d f14a acbd
000003b0: 590b 79be 2198 e13d ca8f d73d f94b 8dbe
000003c0: 4774 633e 4c8f 103e eb65 bcbd af91 8bbe
000003d0: 8b58 763d 04fb 87be 26f6 86bd 6687 61be
000003e0: 4a5c 873e d895 0e3e 3c6c 883e 1caf 95be
000003f0: c1ca 123e 289a ad3e 8881 58be c120 9abd
0.24911563 0.18801667 -0.29316294 0.0047520725 -0.18374203 -0.35099873 -0.0258469 0.05616296
0.30797088 -0.31524378 0.30060902 0.1821641 0.11871648 0.31193733 -0.1445296 0.21853739
0.25297517 -0.19693875 0.20467232 0.28087533 -0.01821163 0.10607196 -0.28925458 0.16393813
0.18359901 -0.22478347 0.10919106 -0.25231692 0.119803034 0.11969412 0.24861343 -0.093917094
0.25007614 0.085370585 0.2548282 0.06943524 -0.04835581 0.15237345 -0.13674998 -0.20685199
-0.105255246 0.10026045 -0.082548305 0.16000086 0.1906954 -0.17020509 -0.26664186 -0.0016831472
0.16323096 -0.086567074 -0.14453742 0.03685563 0.0003059677 -0.22385988 -0.05661057 0.057687573
0.030839395 0.044419542 -0.31433818 0.13796659 0.083333924 0.016527189 0.13412587 0.23077938
-0.19300064 -0.27188143 0.21396087 -0.21542723 0.1742162 0.18492813 0.22016373 0.1332421
0.0917721 -0.24942477 0.28027654 0.1627371 -0.2876951 0.0040714345 0.117069006 0.25286546
-0.037852287 -0.27643612 0.2566051 0.15882826 -0.023921981 -0.344668 -0.15962699 -0.2727054
-0.090284094 -0.030943474 -0.22696602 0.24566823 -0.13072516 -0.15594701 -0.042993385 -0.128582
-0.32533348 -0.0976365 0.07116735 -0.3255569 0.05876873 0.101444185 0.12047177 -0.12560128
0.14989832 -0.04018426 0.121024385 0.05675205 -0.027696718 0.008669475 -0.28744236 0.3103028
-0.30409756 -0.0216493 -0.23732962 0.1587267 -0.22085282 -0.038785145 -0.08998782 0.076257765
-0.17284214 -0.087942876 0.27839196 -0.05825936 0.1658255 0.044621866 -0.09171045 0.03688089
-0.15548961 -0.2607088 -0.31455612 -0.23749456 -0.18597195 -0.26683724 -0.1435188 0.06240471
-0.28771442 -0.30656862 0.04240544 0.30099064 0.3173729 -0.050092716 -0.14651273 0.044223867
-0.14547661 -0.19080877 0.29790682 0.22136584 0.0026787168 -0.25761658 0.13258483 -0.14244197
0.020762682 0.12499052 0.29804415 0.30739704 0.093102396 0.11284928 -0.29110086 0.0651775
-0.11491222 -0.22107121 0.063261665 0.06454126 -0.20379359 0.2223407 -0.029379366 -0.321138
-0.23530774 -0.0076979855 0.093883835 -0.14800653 -0.02059935 0.2977287 0.12004951 -0.2373524
0.21755816 0.22638445 0.282548 -0.046138685 -0.29557094 -0.19254798 -0.2496039 0.039058197
0.21523131 0.28189147 0.19193694 0.23313129 -0.32481503 -0.1623704 0.25355306 0.2489073
-0.17519248 -0.30465254 -0.28292352 0.31196934 -0.30221963 -0.2690133 0.23951818 -0.15522203
-0.2179142 0.30857304 -0.098496005 0.26898676 -0.22052196 -0.208295 0.23357055 0.19086142
-0.12007155 0.29727152 0.2399665 -0.14092872 -0.026996216 0.051888514 0.1459113 -0.022925656
-0.1558168 0.26233244 -0.25173792 -0.3509272 -0.2394402 -0.32273808 0.011323572 0.0018117926
-0.12900703 4.243749 0.13341463 -0.15587637 -0.004264178 -0.1865404 -0.3579763 3.9218638
-0.26351374 -0.25865448 0.10289646 -0.084127314 -0.24320735 0.110153444 0.105254725 -0.27597025
0.22212325 0.14117163 -0.09199127 -0.27259585 0.060143035 -0.26558697 -0.06589918 -0.22024307
0.26437598 0.13924348 0.26645076 -0.2923516 0.14335157 0.33906674 -0.21143162 -0.075257786

node_encoder.0.bias f4 [64]
00000000: 8d1f 11be 5d80 8dbc ab39 c4ba 5d5d f23d
00000010: 51cc 72be be53 ab3e 4440 58be 35d8 00bd
00000020: 8d28 e43d 36df 9bbe b023 f33e 7210 02be
00000030: d80f 073e fbd4 8ebe 5ba3 17ba de67 e03d
00000040: cb12 3fbd 211b 643e 64a4 5b3f 6a80 f4bd
00000050: 9846 afbe a17f 273e 3069 d9bd 604c a33d
00000060: e308 373f e53d b0bb acf6 f3bd d64e 50be
00000070: 4a6f be3f 6892 d63e 2007 e83f b82d 38bc
00000080: 3048 61bd 8127 e23e 5bda 01bd 5e98 1e3f
00000090: baef 24bc 1b48 d03d 8e9e 9dbe 8902 9cbd
000000a0: 4b71 ea3f ee47 813e 3b20 e93e 5d44 9dbc
000000b0: 8656 d93f 563e 5e3e 3373 a3ba 7d5e 29be
000000c0: 3624 10be 3579 4dbc b0b2 1abe d9e3 2cbc
000000d0: eaa3 273e 0057 b9bd a769 af3e 6834 6fbe
000000e0: 7115 54be e419 efbd c379 8b3e 6821 da3f
000000f0: 3353 69bb 7ab1 55be 96be 8fbe dd8f af3f
-0.14172192 -0.017273122 -0.00149708 0.11834214 -0.23710753 0.33462328 -0.21118265 -0.03145619
0.11140547 -0.30443734 0.47488165 -0.12701586 0.13189638 -0.27896866 -0.0005784535 0.10957311
-0.04664878 0.22275974 0.85797715 -0.119385555 -0.34233546 0.1635728 -0.10615766 0.07973552
0.71497935 -0.005378472 -0.11912283 -0.20342574 1.4877713 0.41908574 1.8127174 -0.011241369
-0.055000484 0.44170764 -0.03170238 0.61951244 -0.010066921 0.10170003 -0.3078503 -0.07617671
1.8315824 0.2525019 0.45532402 -0.019197637 1.697953 0.21703467 -0.0012470245 -0.1653995
-0.14076313 -0.012541105 -0.15107226 -0.01055237 0.16371122 -0.09049797 0.34260294 -0.23359835
-0.20711304 -0.1167486 0.27241334 1.7041445 -0.003560257 -0.20868483 -0.28075093 1.3715779

message_layer1.weight f4 [64, 128]
00000000: 0d84 803c e379 f33b ab44 95bd 11e9 ca39
00000010: 3e4c 89bd ae89 70bd f7d8 3b3b d45a 293c
00000020: 0472 89bc effe 5a3d 71e9 823d b851 acbc
00000030: 0ecb 96bc 55be 4dbd 194b b43d 8484 343c
00000040: aae4 263c e766 203c aaf0 833d ad0c a53c
00000050: 91f0 a0bd 3fc7 c33c ba7d 603d 8abd 2fbd
00000060: d93d 273d 2df7 51bc e5f0 66bd 8ebe a9bd
00000070: de1f 8f3e aaa8 7a3d c609 f3be e737 b53c
00000080: e60c 82bc 5cf9 1bbd fb05 a3bd 0bd6 743d
00000090: 7937 9a3c 8fe3 8f3d 098e 2c3d fa38 933c
000000a0: ceef ffbd 37f7 78bd c0c6 873c 4e0b 1a3d
000000b0: 092a 76bd d214 103c dc79 0c3e d375 8fbd
000000c0: 0177 15bd 8a10 453d 26dc 7bbd a1a0 d03c
000000d0: 3cdb bb3b ac3d 8a3d 60db 813d 1ef2 f7bc
000000e0: f138 033d e13f 2b3d 5bf6 8bbd 653f 65bd
000000f0: 9f0a 14bc ad37 76bd 7fae 8c3c 84bd 62bd
00000100: 60aa 9e3c f010 893d 5a08 a7bd 8f5b 1d3c
00000110: 4455 01bd 5c1e 91bd 329b 9fbd 2e88 a13d
00000120: 82eb db3c 2bcd 1bbd f6f4 763c 1e4c a13c
00000130: f140 f23c b541 88bd 19f1 e03c e42b b5bc
00000140: c730 60bb 8b2d b9bc d47d 803d 32e7 973c
00000150: d7af 493d ebe3 443d 2f6f 703c b0a4 af3d
00000160: e7a9 c43a a929 15be c1ff 0bbd adce a2bd
00000170: 82bb 723e 491e 953b dbd0 27bf 5f10 aebb
00000180: 684c 143d 3c05 993d bb34 3bbd 7c46 893e
00000190: 553d aabb 8b7f 663d 03b7 70bd de01 49bd
000001a0: 9e09 1ebe a145 bd3c 1697 8abd 25aa 183d
000001b0: c70b a33d 7ace 8d3d 7331 a2bc e570 233d
000001c0: 01ec acbd 8805 ea3b 7b35 92bd 99ff 0738
000001d0: 64a2 9dbd 597c 1cbd f45f 91bc 00f0 813d
000001e0: 023a c0bc 2811 1dbd b021 2e3d 7cce 8bbd
000001f0: b39a 2abd 0213 6e3c 6b86 9c3d e0fa db3d
00000200: 9479 443d a943 27bd 5a4a 393d 4b5d 183d
00000210: 9b86 f5bc fc97 023d 0b3d 81bd 0e65 4d3d
00000220: 12cf 01bb 43fc 753d d5a5 04bd 29f6 36bd
00000230: da7d 6ebd d33b a13c 4071 0abc 932d 75bd
00000240: ad9c 85b9 0887 833c 7035 233d e071 603d
00000250: ce5f 62bc d88c a2bd da81 0c3d 793e a83d
00000260: 7263 2c3d 243b 58be 85f9 2e3d 5f67 a1bd
00000270: 3fa8 b63d 9dc2 003c 7843 813e b4d8 d4bc
00000280: 2eb3 323d 6cda 043a d021 d8bc 1903 093c
00000290: 8957 0cbd eb2d 863d ca96 6abd cd86 87bd
000002a0: 9761 dbbe 28b7 5a3d 3190 473d 727d 75bb
000002b0: 5f66 7ebd b376 5bbd 15f5 e43d ef41 34bd
000002c0: 30b3 93bd 92f8 593d a6b2 9dbd cbfb 21bd
000002d0: 5cc5 393c b02f ae3d b7ed 683d d63f 0ebd
000002e0: ed00 ac3d e441 3bbd fcc3 f7bc b648 52be
000002f0: f81a 843b ffb6 9dbd 8d0e a2bd 926a a53d
00000300: 61ce 5f3d 19cb 3abd 556c 48bd 66b2 9cbd
00000310: bd74 28bc 4e42 c53c e9a7 f53a 15d9 77bd
00000320: b82f b93d c1d0 4c3c a4c8 0a3d da69 a33c
00000330: 8b9f 17bd cbee 3e3d 2b81 af3d f010 a43b
00000340: 806b ad3d 4aff e53b b2d1 8f3d ba6d 1cbd
00000350: a937 9a3d 8234 a73d 75cd a53c e7f6 10bb
00000360: 2443 f8bc 4cc2 33be 8f8c 5b3d 789d b33d
00000370: ae67 263e 8983 b73d e16a 373e 7ad1 5fbd
00000380: 4c81 783d 6151 553d fd5b 9e3d 80e6 e53d
00000390: 4f5e ddbc 6c38 37bd fd6e 68bb 282c 70bd
000003a0: 8421 a7be f301 dd3c 1589 a3bd 4be3 abbc
000003b0: 8d10 823d 9731 6d39 c87d 81bc c51a 2b3c
000003c0: 38d0 553d c6e8 3d3d d566 b23c f6e9 a13d
000003d0: 73df f2bc 62dc 32bd 536f c33d 3ab8 88bd
000003e0: 7dd2 713b 74cb 8dbd 1b44 05bd eb61 a9be
000003f0: 4605 4d3c c024 08bc 94f8 b63d 3a97 553d
0.015687967 0.0074303015 -0.07288488 0.0003870209 -0.06703995 -0.05872505 0.0028663257 0.0103365965
-0.016778 0.05346578 0.06392182 -0.02103506 -0.01840737 -0.050230343 0.08803386 0.011017922
0.010186354 0.009790159 0.064423874 0.020147646 -0.078583844 0.023898719 0.054807402 -0.042905368
0.040830467 -0.012815279 -0.05638208 -0.082882985 0.27954 0.061196007 -0.47468394 0.022121383
-0.015875291 -0.038079605 -0.07960125 0.05977444 0.01882528 0.07025825 0.042127643 0.017971504
-0.12496911 -0.060782637 0.016574264 0.037608437 -0.06009868 0.008794026 0.1371836 -0.07004895
-0.036490444 0.048111476 -0.061489247 0.025467219 0.005732922 0.06750044 0.063406706 -0.030266818
0.032036725 0.041808967 -0.06834098 -0.05596866 -0.009035735 -0.06011169 0.01717305 -0.055356517
0.01936835 0.06692684 -0.0815589 0.009604349 -0.031575456 -0.07085869 -0.07793273 0.07887302
0.026845697 -0.03803746 0.015073052 0.019689616 0.029571982 -0.066531576 0.027458714 -0.022115655
-0.003420876 -0.022604724 0.06274 0.01854286 0.04923996 0.048068922 0.014674946 0.085763335
0.0015004248 -0.14566673 -0.034179453 -0.079495765 0.23704341 0.0045507294 -0.65553063 -0.00531201
0.03620568 0.074717015 -0.045704585 0.26811588 -0.0051952996 0.05627398 -0.058768284 -0.049074046
-0.15433356 0.02310449 -0.067670986 0.037271637 0.07961231 0.06924148 -0.01979897 0.039902586
-0.08443452 0.0071417727 -0.07139107 3.2424552e-05 -0.07696989 -0.038204525 -0.01774595 0.063446045
-0.02346516 -0.03834644 0.042512596 -0.06826493 -0.04165144 0.014530899 0.07642826 0.1074121
0.04796751 -0.04083601 0.045236923 0.037198346 -0.029971411 0.031883225 -0.06310471 0.0501452
-0.0019807261 0.06005503 -0.032384712 -0.04466835 -0.05822549 0.019681847 -0.0084498525 -0.059857916
-0.0002548447 0.016055599 0.039845884 0.0547961 -0.013816787 -0.0793702 0.034303524 0.08215041
0.042087026 -0.2111631 0.04271843 -0.078810446 0.08918809 0.007858899 0.25246787 -0.025982238
0.04362791 0.0005067948 -0.02638331 0.008362555 -0.034263168 0.06551727 -0.05727271 -0.06617508
-0.42847893 0.053397328 0.048721496 -0.0037458804 -0.062109347 -0.053579997 0.11179558 -0.04400819
-0.07211912 0.05321557 -0.0770009 -0.03954677 0.011338558 0.085051894 0.056867328 -0.034728847
0.08398614 -0.045717135 -0.03024482 -0.2053555 0.0040315352 -0.07700919 -0.079129316 0.08076967
0.054640178 -0.045603845 -0.04893144 -0.07651214 -0.010281739 0.024079468 0.0018742058 -0.06050976
0.09042305 0.012500943 0.033882752 0.019947935 -0.037017386 0.04661445 0.08569559 0.005006902
0.084677696 0.007018958 0.07022418 -0.03819058 0.075301476 0.08164312 0.020239571 -0.0022119822
-0.030305453 -0.17554587 0.053600844 0.08770269 0.16250488 0.08960635 0.17911865 -0.05464313
0.060670182 0.052079562 0.07732389 0.11225605 -0.027022509 -0.044731542 -0.0035466545 -0.05863586
-0.32642758 0.026978469 -0.07985131 -0.020982405 0.06350813 0.00022620555 -0.015807047 0.010443394
0.052200526 0.04636457 0.02177755 0.07905953 -0.029647565 -0.043667205 0.09542718 -0.066757634
0.0036899142 -0.06923571 -0.032535654 -0.33082518 0.012513464 -0.008309543 0.08934131 0.052146174

message_layer1.bias f4 [64]
00000000: 3354 883c 2699 25bd a58f 9dbb ed90 933d
00000010: ada8 333c 11d4 dc3c 65d6 f33c 3d7c 7bbd
00000020: d5b3 dabb 3bfa 70bd f669 b1bb cab4 a1bd
00000030: 5024 a13d c8c7 0fbd f3f4 a8bd bc31 c1bc
00000040: a81a 7e3d 207b 9c3c 0280 923d 349b 053c
00000050: 950e 96bd 85ff cabd 897c 813d dd6c 2bbd
00000060: 761e c6bc 066c 363d 9465 28bd 76e3 6ebd
00000070: d6ce c13d c9e9 663d cd56 fe3d 7542 1a3c
00000080: 7792 333d 27e0 fd3b b194 09bd 2a74 1fbd
00000090: c703 9b3d 2110 ac3d 1540 6bbd f381 1bbc
000000a0: 96c0 cbbd 9c75 56bd dec6 383d 3564 91bd
000000b0: ac03 dc3d b410 a5bd 1468 02bf a500 803d
000000c0: d53d b2bc bc6e c0bd d47f 1f3c 6486 273d
000000d0: 1d3c 733d 9ee0 4ebd 68e7 bcbd 64b2 be3c
000000e0: cdeb a33d 877d 15bd 311d 663d 2fad 0dbd
000000f0: db22 283d 2af2 be3c f00b fcbc 58db ad3d
0.016641712 -0.040429257 -0.0048083835 0.07205377 0.010965508 0.02695659 0.029765317 -0.06139778
-0.0066742697 -0.05883239 -0.005414243 -0.07895811 0.07868254 -0.035102636 -0.08249845 -0.023583286
0.06203714 0.01910168 0.07153322 0.008154679 -0.07327 -0.09912018 0.06322581 -0.041851867
-0.024184447 0.044536613 -0.041112497 -0.058322392 0.09463279 0.0563753 0.124189 0.009415259
0.04384085 0.0077476683 -0.03358907 -0.038929142 0.0756908 0.08401514 -0.05743416 -0.0094914315
-0.09948842 -0.052358255 0.04511153 -0.07099191 0.10742888 -0.080598265 -0.5094006 0.06250123
-0.021758 -0.09396121 0.009735066 0.04089965 0.0593835 -0.05050718 -0.09223825 0.023278423
0.0800396 -0.036496665 0.056180183 -0.03458899 0.041048866 0.023308832 -0.030767411 0.08489102

message_layer2.weight f4 [64, 128]
00000000: 5c01 7c3d 5bf7 7a3d e975 023c 2cac 84bc
00000010: 5880 ae3c 306d b33d a556 3b3d cd56 973d
00000020: 4792 853d 8f36 b23c 5caf f73c 6290 dbbc
00000030: e401 b53d 459f cc3c 5792 6f3c 8f05 a13d
00000040: b767 e03b 0100 1bbc ac9b 6cbd a1e8 063d
00000050: 1074 823d 5467 2a3d 545a 7b3b fb65 a0bd
00000060: bfe5 85bd 39f9 99bd 831e 873d 685f b43d
00000070: d2c7 f73c cdfa a03d 50e6 19bc 8da3 9cbd
00000080: dbcd 093d 0ff9 bb3d 333e e7bc b820 993d
00000090: c7ed 453d 0ce7 67bd ad3e 3a3d 2929 083d
000000a0: 43e2 753d ab86 74b9 1359 52bd 9fb5 353d
000000b0: 3f3f d4bc a0c1 753d 525f 743e c432 7ebd
000000c0: 819c 8a3d b1dc 593c 1f98 d93d 3a63 6abc
000000d0: 1901 413d 8626 34bd 1bc0 85bd e57c b13d
000000e0: 11d2 ba3d 53ef 243d 0e24 a1bb 2a5a 0f3d
000000f0: 7d3b 5c3d d3c0 87bd 3eb1 c33d 02ea 0b3d
00000100: 6220 7a3d d897 79bd ee07 bf3c 0c84 b0bc
00000110: b9ac 533b 55da 113d 6809 c83d 1d4b 9c3d
00000120: 3c4b 993d eb9e 90bd 49ed ddbc 84b0 983d
00000130: 4252 a83d 3e32 c73b 4666 06bd 2f23 30bd
00000140: e7e3 a43b d720 50bd 5b82 81bc 1e99 85bd
00000150: 4e15 ad3d 8a7e a8bc 3008 f4bc 034c 263d
00000160: c664 37bc 0f05 80bd e367 ad3c 219d e43d
00000170: ecbf a8bd db7a 45bc 1cf9 6e3d 2916 a13d
00000180: 640f aa3d 00cb 013e ed45 433c 7cec 40bd
00000190: 2709 173e 5547 8d3b 1cde 23ba 4cba 123d
000001a0: 89c5 c1bc 982e 003d 999a 45bd 5dd6 9fbd
000001b0: 99a8 46bd 0b2e e0bc f678 a53e 624f f1bc
000001c0: 5bd6 693d edd9 09bd 0c77 053d 152e 933d
000001d0: 05ad 36bc cf73 1cbc 205d 993d abf9 ce3c
000001e0: 6a0a b8bc df85 24bd de4c 05bc a255 663b
000001f0: a626 b03c 9a61 8d3d 5182 9ebd 7bb5 5bbd
00000200: c587 703d 2d26 37bd 60e0 603d fde7 11bd
00000210: 3c61 3a3d 661e 83bd 4a8a 833c 3c9d 92bd
00000220: b305 953b c255 4b3d b948 8cbc 2ee3 88bc
00000230: 8135 1b3d 740e 1fbd 05d5 883d 02c5 a1bd
00000240: 5857 683d 9d69 b53d f248 7d3d ab4e 3abc
00000250: c4ec c0bc 443f 593d f379 1fbd b5b7 033c
00000260: 4b5e 94bd a972 283d d4eb d93c 3fbf 8d3d
00000270: 6fee 4abd ee4f 723d cada 0d3d b38f bdbc
00000280: b073 9f3d 4e48 c33d 5493 33bd 66d8 443c
00000290: 3f38 f83d ccc2 8e3d 7fd5 103d f017 d0bc
000002a0: 2542 69bd 1b1c 0f3d 3707 a53d 35fd be3d
000002b0: 9eab b6bc 1305 4bbc 0863 9a3e 1a23 b2ba
000002c0: 755f 8fbc 75eb 723d 3f89 8b3d 593a 5abd
000002d0: f19d d93b 11b8 88bd 0e43 0d3d 7b18 233d
000002e0: 771f 723d bed6 6f3c e598 7cba e333 86bd
000002f0: c1a5 dbbc 68de 7a3d 2702 36bd 5bdb 9bbd
00000300: eb25 233d af7c 6f3d c888 393d 5635 6b3c
00000310: 4df7 a1bd 65c3 553d e368 853d f25f 5bbd
00000320: 377d bd3d 7b21 81bd 7894 81bc 9f8f 8cbd
00000330: f33f 22bc dabd 62bd f9e7 7d3d 6e77 3cba
00000340: 826a 823d 9e78 b0bb 5551 a73d c9a2 8a3d
00000350: 1765 b63d a4f7 fdbc a905 82bd 1b1f 04bd
00000360: a56a 2b3d 1a1a 863d 6b33 d2bc 084f 9bbb
00000370: 0439 8b3d 75a6 7f3d b082 a93d 37b9 e23b
00000380: f637 85bd 217e ab3c 485a 093c ad84 fabb
00000390: b70a 033e 436b 653d 70be 9b3d e958 bb3d
000003a0: 671d 533d b613 613d b5b9 8a3d 6299 533d
000003b0: 64c0 8abb 59a3 50bd 88ae 653e 6c51 1fbd
000003c0: 106e a7bb 908a 833c 1c69 7abd fb05 69bd
000003d0: b7be 32bc 3916 853d d2d7 40bc da19 80bd
000003e0: c307 80bd 64b6 ae3d ea56 913d 39ac 1fbd
000003f0: 37c6 393d f379 36bc 1740 56bd daeb d13d
0.061524734 0.061271053 0.007962682 -0.01619538 0.021301433 0.0876106 0.045736928 0.07389603
0.06522041 0.021754531 0.030234985 -0.026802246 0.08838251 0.02497829 0.0146222925 0.07862388
0.0068483013 -0.00946045 -0.057765648 0.032936696 0.063697934 0.041602448 0.00383534 -0.07831951
-0.06537961 -0.075182386 0.065976165 0.0880726 0.030246649 0.078603365 -0.00939329 -0.07648382
0.033643585 0.091783635 -0.028227901 0.07476944 0.048322465 -0.056616828 0.04546993 0.03324238
0.060030233 -0.00023319821 -0.05135448 0.04436266 -0.025909064 0.05999911 0.23864487 -0.062060133
0.06768132 0.013297246 0.10624718 -0.014305884 0.047120187 -0.04398205 -0.06530782 0.086664
0.09122098 0.0402673 -0.004917628 0.034998097 0.05376767 -0.06628575 0.09555291 0.034158714
0.06106604 -0.060935825 0.02331921 -0.02154734 0.0032298996 0.03560861 0.09767419 0.07631514
0.07485053 -0.07061561 -0.027090685 0.07455543 0.082188144 0.0060789874 -0.03281238 -0.043002304
0.005032051 -0.05081257 -0.015809229 -0.065233454 0.08451329 -0.020568151 -0.02978906 0.040599834
-0.01119346 -0.06250965 0.021167701 0.111627825 -0.08239731 -0.012053217 0.058343038 0.07865555
0.08303717 0.12675095 0.011918527 -0.04710053 0.14749585 0.004311482 -0.00062510534 0.035822198
-0.023653762 0.031294435 -0.04824314 -0.078045584 -0.04850063 -0.027365705 0.32318848 -0.029456798
0.05708919 -0.033655096 0.032584235 0.07186524 -0.0111496495 -0.009549095 0.07488465 0.025265535
-0.022465903 -0.040166732 -0.008136002 0.0035146256 0.021502804 0.06903382 -0.077397 -0.05363987
0.05872323 -0.04471414 0.05490148 -0.035621632 0.045502886 -0.064022824 0.016057152 -0.07158896
0.0045477985 0.049642332 -0.01712452 -0.01670989 0.037892822 -0.038832143 0.06681255 -0.078989044
0.056723922 0.08858035 0.061837144 -0.011371295 -0.023550399 0.05303885 -0.03893466 0.008039405
-0.072445475 0.041124973 0.02660171 0.06921243 -0.049543794 0.05915826 0.03463248 -0.02313981
0.077857375 0.095352754 -0.043841675 0.012014484 0.12120103 0.06970748 0.035359856 -0.02540204
-0.056947846 0.034938913 0.08058017 0.09325639 -0.02229863 -0.0123913465 0.3015368 -0.0013590783
-0.017501572 0.05930658 0.06813287 -0.0532783 0.0066411425 -0.06675733 0.034487776 0.03981827
0.05911204 0.014638601 -0.000963582 -0.06552865 -0.026812436 0.06124726 -0.044435646 -0.07610198
0.039831083 0.058468517 0.04529646 0.014355978 -0.07908497 0.052188296 0.06514146 -0.053558297
0.092523985 -0.06305214 -0.015817866 -0.06863331 -0.009902942 -0.055356838 0.061988804 -0.0007189427
0.06367971 -0.0053854724 0.0816981 0.0676933 0.08906 -0.031001873 -0.06348736 -0.032256227
0.04184975 0.06547947 -0.025659284 -0.004739646 0.06797984 0.062414605 0.0827688 0.006919052
-0.06504814 0.020934166 0.008383341 -0.0076452107 0.12797056 0.056010496 0.076046824 0.09147818
0.051541712 0.05495044 0.06773702 0.05165995 -0.0042343605 -0.05093703 0.2242986 -0.03889601
-0.005109556 0.016057283 -0.061135396 -0.05689047 -0.010909728 0.06498379 -0.011770206 -0.06254931
-0.062514804 0.08530882 0.07096656 -0.038982604 0.045355048 -0.011137473 -0.052307215 0.10250063

message_layer2.bias f4 [64]
00000000: 4676 c2bc 007f d3bc 8dd1 c0bd ed50 7b3d
00000010: 1cca 88bd 1539 883d b6c3 19be f251 e4bd
00000020: c388 9cbb 7d74 e2bd bfb9 a0bc 4c87 86bc
00000030: b455 5b3b eeae 0bbd d7c6 acbd 27a3 97bd
00000040: ae27 bcbc 77cd 22bd 9cff 96bd 36bc aabd
00000050: c353 71bd 54c6 44bc b0e4 7dbd f571 093c
00000060: a20b 2b3d 87e2 a9bd 9013 81bc 08ca 89ba
00000070: 9994 2fbd cb22 933d d135 9a3d a23a 95be
00000080: e549 f5bc 7a6d 5ebe 7086 a63d 1f1a ed3c
00000090: dce3 3cbe f943 be3c d021 4ebd e776 f4bc
000000a0: 688c 953d 0d24 923d e8db 99bc 83b8 b2bb
000000b0: ea83 813e 0339 cabd 0ee0 98bc fd97 6ebd
000000c0: d8c8 403d cbbb 86bd bf5e fbbd 698b c3bd
000000d0: 54b5 75bd d024 c53c 924e 87bd e506 e8bc
000000e0: 40e9 7d3d 123a 76bd ec97 b6bd 76df 8dbd
000000f0: 12cc 9c3d 8745 18be b688 97bd 2eb3 113e
-0.023738038 -0.025817394 -0.09414969 0.061356474 -0.06679174 0.066515125 -0.15016064 -0.11148442
-0.0047770455 -0.110573746 -0.01961982 -0.016421936 0.003346783 -0.034102373 -0.08436363 -0.07404166
-0.02296814 -0.039746728 -0.07372972 -0.0833668 -0.058917772 -0.012010176 -0.06198567 0.008388986
0.04175914 -0.0829516 -0.015756398 -0.001051248 -0.042866323 0.071843706 0.07529796 -0.29146296
-0.029942462 -0.2172145 0.08131111 0.02894312 -0.18446296 0.023225771 -0.050325215 -0.029841853
0.07302171 0.071357824 -0.018781617 -0.0054541244 0.25295955 -0.09874155 -0.018661525 -0.058250416
0.04706654 -0.065787874 -0.12273931 -0.09548075 -0.05998738 0.024065405 -0.06606783 -0.0283236
0.061990023 -0.060113974 -0.089156955 -0.069273874 0.07656111 -0.14870273 -0.073991224 0.14228508

message_layer3.weight f4 [64, 128]
00000000: 76a0 73bc 05d0 a3bd f105 73bc ebf9 5dbd
00000010: e1a7 023d d3ae 4dbd 2a4a 953d 570d 61bd
00000020: c660 983d c494 0ebd 68a9 e2bc 68fa 5abd
00000030: 1afc 9dbd 0b2c 1d3c 905d 8f3d 244b 493c
00000040: de2b 8c3d 9836 4ebb 33f3 e93a 1b2b f33c
00000050: 9eaf b239 57b8 e9bc 9ea1 b8bd f8f1 923d
00000060: 2ddd 08bd 5f11 55bd 18b5 9fbd 73ed 6d3d
00000070: fe04 6c3d c2e0 243c c477 1e3d 618a 443d
00000080: fab2 973b e4f3 8e3d 1546 20bd 1b54 57bd
00000090: 7a84 50bd a6cd 933d 61a5 9f3d 3fc8 313d
000000a0: e1a8 2ebd 0b8b abbd 1902 b63c fbd7 19bc
000000b0: 66f2 5abc dc18 19bd 5815 8cbd b788 933d
000000c0: 4fc3 a13c 60f3 103d 186b 80bc c24c 0ebd
000000d0: 05cd ad3c fdcb 633c 3b77 bbbd 64b1 4fbc
000000e0: 6a8f 59bd 4560 2dbd 4ed6 10bd c491 15bd
000000f0: 0b32 3fbd 408d b13c 42ed 9f3d 47d6 fb3c
00000100: 6e77 5e3d 9cbe 833a 43ec 9dbc e4c7 c1bc
00000110: 47f3 80bd 8679 80bd 2306 05bc 69ac f8bb
00000120: 8788 7abd 2d13 27bd 35ed 433c 1b55 953a
00000130: 3fc1 b8bd 5b54 8fbd 4079 403d c14c 99bd
00000140: ee04 9a3d b3f9 2d3c 5c0f 70bd 5748 8abc
00000150: 507a 183b c85f 0cbd 22ac 803d 07c8 813b
00000160: 0c21 60bd 4282 bdbc 5eab 7bbd 2c86 ab3d
00000170: 290c 24bd 9c2a 9abd 0a38 11bd 84df 79bc
00000180: 373e 8e3d cefe eebc f527 eabc 1857 bebd
00000190: aa9d af3d 6279 a63d 744d acbb 9147 c5bc
000001a0: 8a93 423c c30c 2d3c 83f3 a43d ac6d 9c3d
000001b0: d0cf 8bbc bbfc 3abd 3f76 98bd afc1 303d
000001c0: 335a b7bc 8895 d6bc 3cfc e33c 86b2 d1bc
000001d0: 325c 95bd 688a 21bc 6301 6b3d 98c8 6c3d
000001e0: d1e4 b0bd edb8 62bd f1a9 87bd e5bc 8a3d
000001f0: 0cef 8abc b691 a83d ac9d 8bbb 4501 6ebd
00000200: 0974 b23d a74c 0d3d e9f5 753d 2467 ec3c
00000210: fb54 613d bc33 743d ad65 e33d ea7c 63bd
00000220: 152a 0fbd 6ee0 56bd b0cd 473d 1cbd 0d3c
00000230: e30e 033b 1d76 97bd de72 8cbc dc9b df3c
00000240: 1413 64bd d3e9 163d 3bf0 60bd dbcc c23d
00000250: a3f7 433d fefc ab3d c074 8abd 7791 a23d
00000260: 724f 8b3d 1f11 92bd fa3b 423c 4dbb 44bc
00000270: 3e10 aa3d 46db f9bc e019 8cbd e1c5 cabc
00000280: ae98 a43d c018 9e3c d0f1 2a3d 1bae 873d
00000290: baae 323e 4cc2 14bd e629 c53c 2d94 b0bc
000002a0: 76ba 053b 398e b23d f681 a33d 9cf6 113c
000002b0: 9c42 32bd 9001 9f3c 357c 873d 41fa 893c
000002c0: 95f8 063d 890a ae3d 80bc 28bd 6945 4b3d
000002d0: e839 553d ebd8 85bd 91aa 66bd 7b73 a73d
000002e0: 254c 9abc d772 d0bc 5818 903d 357e ec3a
000002f0: 3762 d43d 3659 35bd f3ac d4bc dad1 adbc
00000300: d8e1 e83d f51f 99bb 035c 503d 240a ac3c
00000310: 1ddd bf3d 5eb7 ad3d 6338 5ebc 99b1 acbc
00000320: 32e2 0e3d 1912 77bc f242 90bc e1a4 913c
00000330: 0ee1 8e3d 433a f83b 9de8 76bd a8a7 0e3d
00000340: 6504 76bd 7b1b 8e3d 8e3d 203d 14af 46bc
00000350: cf23 7639 b8fe 45bb 215c ae3c 1708 a63d
00000360: 4d0e 39bd 3620 423c 50f9 9e3d d547 a63b
00000370: 725d 4e3d cfb2 7a3d 9d74 ab3d 08fa 9f3d
00000380: 1fad 873b 22ae ecbc 1a1c 92bd f434 33bc
00000390: 82a3 0b3e c012 85bd 51fe 823d 3ca8 02ba
000003a0: f965 603b 6148 4f3d 258b 81bd 7de2 e63c
000003b0: 087a 4c3b 330e 8abd 9256 6e3d a3c3 7f3d
000003c0: b215 b63d 4e8f c13c ceb8 bf3d 5ae1 883d
000003d0: 2af2 303d b6a6 5c3c ecd1 8c3d 4e14 1abd
000003e0: 0a27 3e3d 3786 323d f9d4 ecbc 3214 0bbd
000003f0: 3701 6b3b 8368 9dbc 76f4 9dbd 31c0 b13d
-0.0148698 -0.07998661 -0.0148329595 -0.05419342 0.031898383 -0.050215553 0.07289536 -0.054944362
0.07440333 -0.034809843 -0.02766867 -0.053461462 -0.077141 0.00959302 0.070002675 0.012285981
0.068443045 -0.0031465646 0.0017848968 0.02968364 0.0003408165 -0.028530283 -0.09015201 0.07175058
-0.033414055 -0.05201852 -0.07798213 0.058087777 0.05762195 0.010063352 0.038688436 0.04798353
0.00462949 0.06980112 -0.039129335 -0.052570444 -0.05090759 0.07216959 0.077952154 0.04340386
-0.042641524 -0.0837613 0.022217797 -0.009389873 -0.013363456 -0.037377223 -0.068400085 0.07203811
0.01974645 0.03538835 -0.015676066 -0.03474117 0.021215925 0.013903615 -0.09153601 -0.012676571
-0.053115286 -0.042328138 -0.035360627 -0.036515966 -0.046678584 0.021673799 0.07808925 0.030741824
0.054313116 0.0010051313 -0.019277697 -0.023654886 -0.062964015 -0.06273179 -0.008119139 -0.0075889123
-0.06116536 -0.04078977 0.01195841 0.0011393161 -0.09021234 -0.069985114 0.046990633 -0.07485343
0.075204715 0.010618615 -0.058608398 -0.016880197 0.0023266263 -0.03427103 0.06282832 0.0039606127
-0.054719016 -0.0231334 -0.061442725 0.08375201 -0.04005066 -0.07527658 -0.035453834 -0.015251044
0.0694546 -0.029174235 -0.028583506 -0.092939556 0.08574994 0.08128621 -0.0052582566 -0.024081977
0.011875996 0.010562125 0.08054259 0.07638106 -0.017066866 -0.04565118 -0.07444429 0.04315346
-0.022381878 -0.026194349 0.027830236 -0.025597822 -0.072929755 -0.009859659 0.05737437 0.05780849
-0.08637393 -0.05535214 -0.066242106 0.0677431 -0.01695969 0.08230917 -0.0042607393 -0.05810668
0.08713538 0.03449693 0.06004897 0.028857775 0.055012684 0.05961965 0.111033775 -0.05553905
-0.034952242 -0.052460127 0.048780143 0.008651044 0.0019997887 -0.07395575 -0.017144617 0.027296
-0.055682257 0.036844086 -0.0549166 0.09511729 0.047843587 0.08397864 -0.067605495 0.079379015
0.06802262 -0.07132172 0.01185512 -0.012007547 0.08303879 -0.030500066 -0.06840873 -0.02475256
0.08036934 0.019298911 0.041734517 0.06625005 0.17449465 -0.03631811 0.02406783 -0.02155503
0.0020405329 0.08718533 0.079837725 0.008908894 -0.043520555 0.019409925 0.066154875 0.016842963
0.03295191 0.08498103 -0.041195393 0.04962674 0.052057177 -0.065355144 -0.05631501 0.08176323
-0.018835137 -0.025445385 0.07035893 0.0018042984 0.103702955 -0.04427453 -0.025961375 -0.02121823
0.11371201 -0.004672999 0.050869 0.02100093 0.09368346 0.0848224 -0.013563248 -0.021080779
0.034883685 -0.015079998 -0.017610047 0.017778816 0.069765195 0.0075753047 -0.06028043 0.03482786
-0.060062785 0.06938835 0.039121203 -0.012126703 0.00023473728 -0.0030211639 0.021284165 0.08107012
-0.045179654 0.0118485 0.07762396 0.005074481 0.050382085 0.06120568 0.083718516 0.078113616
0.0041405107 -0.028891627 -0.07134266 -0.010937918 0.13636592 -0.06497717 0.06396163 -0.00049841753
0.0034240468 0.050606135 -0.06325368 0.02818417 0.0031200666 -0.067409895 0.05818803 0.062442433
0.08890857 0.023627903 0.093614206 0.066836074 0.043199696 0.013467481 0.06875977 -0.03761702
0.04642395 0.04358503 -0.028910147 -0.033954807 0.0035858878 -0.019214874 -0.07712643 0.08679236

message_layer3.bias f4 [64]
00000000: 4bba 5ebd d716 003d a83f 803d b5a1 21bb
00000010: 7bc2 083d a609 37bc 431c 7bbb 61f3 39bd
00000020: bcf9 a53d 9efc 5b3d 5023 91bd 9dd7 e1bd
00000030: cb05 9c3d 6504 023c 7bf6 dcbc a2cd b0bd
00000040: ed59 773d 5bde bbbd 66f7 973d f942 38bd
00000050: 3481 2ebd fe92 573c 77d3 d53c 96b2 b0bd
00000060: d3da 3c3d 0437 f1bd 11d3 1e3e a1aa 70bd
00000070: b51f 003d 3155 b8bd fbdb d03d ee81 1cbf
00000080: 23a3 f33c fa20 7d3d 3a2d a43d 7f8b 873c
00000090: 96ef 36be 7c4d d23c 4008 bbbd 3f41 cdbd
000000a0: 414f 483c 36cc 41bb 1a3b 0c3d 2144 de3c
000000b0: 254e 383e d2ab 08bc 86c3 58bb d4ab 8aba
000000c0: 52a3 c43b 5613 e1bd 71f8 3abd 200a 50be
000000d0: b45b 34bd 2807 6d3c 1761 953d dc42 fcbc
000000e0: 6b03 c4bb b692 59ba 4d1e 26bd d49a b93d
000000f0: 702e 313c e24f e3bd 6f57 603d f514 6f3c
-0.05437688 0.03127178 0.062621415 -0.0024663035 0.033388596 -0.011171734 -0.0038316406 -0.04539812
0.08104274 0.05370771 -0.070868134 -0.11027453 0.076182924 0.007935618 -0.026973 -0.08632971
0.060388494 -0.0917327 0.074202344 -0.044985745 -0.042603686 0.013157604 0.02610181 -0.086278126
0.046107125 -0.117780715 0.15510203 -0.058756474 0.03128024 -0.09000624 0.10198208 -0.61135757
0.029740876 0.061799027 0.08016439 0.01654601 -0.17864832 0.025671713 -0.09132433 -0.1002221
0.012225927 -0.0029571182 0.03423605 0.027132096 0.1799856 -0.008341746 -0.0033075525 -0.0010579773
0.0060009146 -0.10990016 -0.04564709 -0.20316362 -0.044032767 0.014467038 0.07293909 -0.0307936
-0.0059818528 -0.00082997547 -0.04055624 0.09062734 0.010814294 -0.11099221 0.054770883 0.014592399

output_layer1.weight f4 [64, 64]
00000000: bc55 f8bd 230c 103d 5567 36bd 0132 eabd
00000010: 9395 3cbc 58f5 163d fb4b cdbd b38c 87bc
00000020: 237f ad3d 64d9 5e3c 6f22 6abd 881a 4ebd
00000030: a895 b03b d109 e0bd 7f80 91bd 58d3 20bd
00000040: 5fc5 263d 6d06 ae3d 4093 fabd fb5d 943d
00000050: 2763 09bd ff61 e5bc 10ac c03c fd8d 5f3b
00000060: 7325 663c 4921 19bc 3f32 82bd 1a62 113c
00000070: 7981 e0bd b0f7 433d 2b9b 8ebd 5acd 98bd
00000080: 8b16 2d3b 9870 54bd 7cf6 edbd b0da 44bd
00000090: ce3b ba3c 9ffb 22bc 8250 883d ce73 efbd
000000a0: 91a9 98bc 6618 f3bd b15c 573d d71e 463d
000000b0: 68ef 7e3d 2365 e1bd 4d23 85bc 18aa 0ebd
000000c0: 082e bcbd ac40 1d3d fb52 b73d 47ab 1abe
000000d0: ca42 773d e28d 2dbd e6a4 f5bd 45f4 3ebd
000000e0: 835a f7bd 2a14 e5bc af18 feb9 52a9 88bd
000000f0: bfaa 013d 3295 893d e2df 3b3c 5e3a 05bd
00000100: a220 61bd 2ed8 aa3d 4011 a7bd 30f2 393d
00000110: cbe6 85bd 4850 6b3d 30fa e83c 9703 a1bd
00000120: 1116 da3c bbd2 75bd 1ff1 0c3d 16d5 a73d
00000130: 70c2 a0bb 3b3c 5cbd 3270 6cbd dd3f b13d
00000140: 8e52 973d b25b 043d ce37 ffbd 6748 ae3d
00000150: 04ee 473d 6b0b 143d b7f1 f0bd 6455 b3bd
00000160: ec88 b7bd 39bd 4e3c 2721 b13d 039a 513c
00000170: 454a d8bd 9e37 d83d 2cbd a4bc a26e 4cbd
00000180: e61f b33d 7586 a33d af98 d2bc 3598 b5bc
00000190: c4a0 5b3d 99aa e53c df6a 903d 8f6b 823c
000001a0: 4e83 42bd 80ed 8ebd e9f8 3cbd 809d 8fbd
000001b0: b79a b73d 915b 07bd 3321 48bd aad5 62bd
000001c0: 794c cb3d 0dc8 8cbc b6c0 f83c 7e39 873c
000001d0: fddd 9b3d 8abe 813d e937 55bd 8faa edbd
000001e0: e5f9 f0bd 3e0b 9e3d 945b 723d 6b57 ddbd
000001f0: a601 a2bc b081 b23a fa23 13bd b60f a43d
00000200: 55d7 2abd f9a8 f7bd a6ad bebd 5c0c b03d
00000210: 8132 573d 7075 efbd e014 1abc 376b 05bd
00000220: ab5c 69bd e06f 58bd 1580 873d 38c2 3e3d
00000230: 2e0a 9a3c f558 fbbd bc3d 1dbd 7afa 283d
00000240: 2ae9 803d e4db 913d 87f8 473c 48ac 91bd
00000250: e55d d3bd 632e 8c3d ae00 983d de64 d93d
00000260: befb 133c fbee 523c 05c3 9cbd a29f 02bd
00000270: dd65 f9bd 74e2 bebc 956b cf3d e6a7 a7bd
00000280: 585a ddbd 81a7 9fbb bce7 e9bd 449a a23d
00000290: 37f6 e9bc ef3d b13d 17d7 25bd f82f ac3d
000002a0: 02b7 8e3d fc99 013d 40e7 71bd ea60 4c3d
000002b0: 07ca 4ebd 0f43 d93b e79e f13d 9bb8 9abd
000002c0: eab0 ba3b 1871 6e3d 5ab5 edbd e227 573d
000002d0: aa32 fc3d 2071 a5bd 67c6 e63c e3b9 b23d
000002e0: 1183 893d 9857 d63d 7adb abbd 6ba3 f6bd
000002f0: f023 933d 1f9c d8bd b476 98bd e248 02be
00000300: cbdd bf3c 9e42 8f3d 87dd 133d 95db 5ebd
00000310: ce95 a0bd 1fb0 e9bd 515a 8c3d 3f43 99bc
00000320: 8430 be3d a770 abbd c44b 3bbd 6240 fb3d
00000330: abe6 433d b137 263c ad70 b83d 6f87 0abd
00000340: 5ef8 bc3c 852f 9c3c 7d86 a2bc 9ff2 e1bd
00000350: 32e5 a53d 5ae5 a53d 7096 833d 4a25 b8bd
00000360: aed3 bb3d c6d5 853d b979 5dbd 9acf 0cbe
00000370: f5d9 29bc 1511 4c3d 1d0e de3d 9900 cebd
00000380: 03a9 a13d 131a 3cbd 859f dc3c 808a 613c
00000390: 0a86 a7bd 5fec 9f3d 5e4e 1abb f605 d8bd
000003a0: 6aa9 b23d ddca c03d 6cae 3bbd 6ba1 24bc
000003b0: 883f ebbb c0b9 76bd 833e ad3d 9ad4 57bc
000003c0: 6781 fbbd b5c7 c7bd 1bfc 54bd 60ce e0bd
000003d0: a1dd e03d daee d1bd a342 a0bc ed85 8bbc
000003e0: 3632 92bd 5155 883d c712 96bb 0b0f 20bd
000003f0: 2fd3 56bc 3be0 a0bd 7c45 b1bd bb3d 90bd
-0.121257275 0.035167824 -0.04453214 -0.11435319 -0.011510271 0.03685507 -0.10024258 -0.016546583
0.08471515 0.013601635 -0.057161745 -0.05031827 0.005388934 -0.10939372 -0.07104587 -0.039264053
0.04071557 0.08497319 -0.12235117 0.07244488 -0.033541825 -0.02800083 0.023519546 0.0034111731
0.0140470145 -0.009346315 -0.0635724 0.008873487 -0.10962195 0.047843635 -0.0696319 -0.07461043
0.0026411142 -0.05186519 -0.11619279 -0.04806012 0.022733595 -0.009947686 0.06655981 -0.1169201
-0.018635543 -0.11869888 0.05257863 0.048369255 0.062240034 -0.110056184 -0.016252184 -0.034830183
-0.09188467 0.038391754 0.08951374 -0.151044 0.06036643 -0.042371638 -0.119943425 -0.046619672
-0.120778106 -0.027963717 -0.00048465046 -0.0667292 0.031656977 0.0671791 0.011466952 -0.032526366
-0.05496276 0.08342014 -0.08157587 0.045396984 -0.06538161 0.05744961 0.028439611 -0.07862013
0.02662185 -0.06001542 0.03440964 0.0819494 -0.0049059913 -0.053768378 -0.057724185 0.08654759
0.07388793 0.03231401 -0.12461816 0.085099034 0.048810974 0.0361437 -0.117648534 -0.08756521
-0.08961663 0.012618356 0.086489014 0.012793067 -0.10561041 0.10557483 -0.020109735 -0.049910195
0.087463185 0.0798463 -0.02570757 -0.022167305 0.053620115 0.028035449 0.07051634 0.015920429
-0.047488503 -0.06978893 -0.046135817 -0.070124626 0.089650564 -0.03304631 -0.048859786 -0.055379547
0.099266954 -0.017185235 0.03036533 0.016506907 0.076107 0.063351706 -0.052055273 -0.11604797
-0.117664136 0.07716988 0.059169367 -0.10807689 -0.019776177 0.0013618972 -0.03592298 0.08010809
-0.041709263 -0.12092776 -0.093104646 0.08596107 0.0525384 -0.11692321 -0.009404391 -0.03257295
-0.05697314 -0.052841067 0.066162266 0.04657194 0.018803682 -0.122728266 -0.038388953 0.041254498
0.062944725 0.07122019 0.01220525 -0.07112938 -0.10320643 0.06844785 0.07422005 0.10614942
0.009032188 0.01287436 -0.076543845 -0.03189052 -0.12177632 -0.02330134 0.101279415 -0.08186321
-0.10808247 -0.004872263 -0.11421153 0.0793958 -0.028559787 0.08654391 -0.04048833 0.08407587
0.069685 0.03164099 -0.059058428 0.049897112 -0.050485637 0.0066303085 0.11797886 -0.07554742
0.0056973593 0.058213323 -0.11606856 0.05252827 0.12314351 -0.080782175 0.028170777 0.08726861
0.06714452 0.10465926 -0.08391471 -0.12042888 0.07184589 -0.10576653 -0.07444516 -0.12723115
0.023421189 0.06995128 0.036099937 -0.05440863 -0.07841073 -0.114105456 0.06853164 -0.018708823
0.09286597 -0.08371096 -0.045726553 0.122681394 0.047827404 0.010145114 0.09005866 -0.033820566
0.02306765 0.019065628 -0.01983952 -0.110326044 0.08100356 0.08100386 0.06425178 -0.08991487
0.09171234 0.06534915 -0.054071162 -0.13751069 -0.010366906 0.04982098 0.10842536 -0.10058708
0.078935646 -0.045923304 0.026931534 0.013765931 -0.08179863 0.07808756 -0.0023545246 -0.10548012
0.087237194 0.09413693 -0.04582064 -0.010048251 -0.0071792044 -0.06023574 0.08459189 -0.013173247
-0.12280541 -0.09754888 -0.05199824 -0.10976863 0.10979772 -0.102506354 -0.019563025 -0.017031634
-0.07138483 0.06656898 -0.004579875 -0.039076846 -0.0131118735 -0.078552686 -0.08655831 -0.07043024

output_layer1.bias f4 [64]
00000000: a214 d8bd 9396 1e3e 54a8 04bd cd6a eebd
00000010: cec6 ed3d b861 a03c f824 6d3e b618 17be
00000020: af92 403e b4e9 a8bd 2ad2 9ebc ca98 783d
00000030: c5a9 963e c2a2 aa3c dd00 1f3d c589 0c3f
00000040: 5de1 ca40 bc2d 0d3e 7d9e 223e f967 8d3d
00000050: 4dea 8d3d 3265 2bbe ca3a 32be 9d6e 3f3d
00000060: 5e4f ba3d 584f 59bd 55cc 463d 490c b1bd
00000070: 1e47 58bd 13b4 f8bd e45a d6bd dbb4 313d
00000080: 606e 2dbe 6ecd c7bd c4d8 88bd e7fb 683d
00000090: 635b 08be 8b34 9e3f ecd8 97bd e585 6aba
000000a0: 1b7a 873d 4fd2 2b3e 457e 0a3d b44a 69bc
000000b0: 86ed 523d d9e7 8140 424a ddbd c2e3 d03e
000000c0: c641 0ebe 1199 0bbe 0771 80be 2a14 803e
000000d0: dec5 3e3c 293b 84bd 8554 19be 8421 96be
000000e0: cefb ae3e da17 59bc c391 1dbe 8f47 bc3d
000000f0: bf93 643d 7c8b f0bd 2e43 5f3d ff6c 5ebd
-0.105508104 0.15487127 -0.032387093 -0.116414644 0.116101846 0.019577846 0.23158634 -0.1475552
0.18805955 -0.082477 -0.019387323 0.060692586 0.294264 0.020829562 0.038819183 0.5489772
6.34001 0.13786978 0.15880771 0.06904597 0.06929455 -0.16737822 -0.17405239 0.04673635
0.09097169 -0.053054184 0.04853471 -0.08644921 -0.052802198 -0.121437214 -0.10466555 0.043385368
-0.16936636 -0.097559795 -0.0668197 0.056880858 -0.13316111 1.2359785 -0.074144214 -0.00089463434
0.06615087 0.16779445 0.033811826 -0.014239002 0.05149605 4.0595517 -0.10805179 0.40798765
-0.13892278 -0.13632609 -0.25086233 0.25015384 0.011643855 -0.064565964 -0.14973648 -0.29322445
0.34176487 -0.013250316 -0.15387635 0.09193336 0.055804964 -0.117453545 0.054507427 -0.054303166

output_layer2.weight f4 [1, 64]
00000000: 86b8 863d b300 9839 41ab 8aba cb9a 7abd
00000010: a63f e13d 9d56 e839 c2b5 4d3d 5190 c2bc
00000020: 45d7 8e3d e3e1 aebd 219c e5bd 42a1 e9bd
00000030: 758b 3b3d 32a5 cb3c a1ef d23d b50c f13d
00000040: 8418 dd3d 4e96 443d a8a1 b0bc a9ad 9a3d
00000050: 0b68 153b add8 7dbd 90dd 30bd a37a dd3d
00000060: 5bea 273d dec7 31bd c295 4abd 0b57 b2bd
00000070: df6a bfbd dd88 5abd 8e59 b2bd 814c 43bd
00000080: e728 2dbd 5d69 62bd 14b9 62bd 77bc 823c
00000090: d9bc b2bc 0444 9d3c 32c3 83bc 3977 9f3c
000000a0: 3d3c ba3c 8095 113d d075 db3d 8bbb c2bd
000000b0: f55a 0dbd aa51 de3d afa0 6fbd 858a b639
000000c0: c33b 8bbd a9bb e2bd fbf4 60bd b648 ea3d
000000d0: 32f5 07bd 096b 4b3b ed0d cdbc a9ca 55bd
000000e0: 74a0 5c3b d81b d93d 2d9e 94bd 185b bd3d
000000f0: 1ed9 db3c e700 993b cfb7 d0bd a3b2 efbd
0.06578164 0.0002899222 -0.0010579602 -0.06118278 0.10998468 0.0004431502 0.050222166 -0.023750456
0.06974653 -0.08539178 -0.1121142 -0.114077106 0.045787293 0.024859045 0.10299612 0.11770002
0.107956916 0.047994904 -0.021561459 0.07552654 0.002279761 -0.061974216 -0.04318005 0.10814407
0.040994983 -0.0434035 -0.049459226 -0.087080084 -0.09346556 -0.05335318 -0.087084875 -0.04768038
-0.042275336 -0.055276264 -0.055352286 0.015959008 -0.021818565 0.019197471 -0.016084287 0.01946603
0.022733802 0.035542965 0.1071583 -0.09508427 -0.03451057 0.1085542 -0.05850285 0.0003481695
-0.06798508 -0.110709496 -0.05492113 0.1143965 -0.03319282 0.003103914 -0.025031054 -0.052195225
0.0033664973 0.10601014 -0.07256732 0.092458904 0.026836928 0.004669297 -0.10191309 -0.11703994
