row_column_routing/best_model.pth (torch, 42717 bytes, 21 tensors)

row_net.0.weight f4 [15]
0	0x3f739912	0.9515544
1	0x3f6c1a3f	0.9222755
2	0x3f8b2842	1.0871661
3	0x3fc33731	1.5251218
4	0x3fbcd37c	1.475204
5	0x3f6c8e1f	0.9240436
6	0x3f14be01	0.5810242
7	0x3f321898	0.6956878
8	0x3f4ae1a3	0.79250544
9	0x3f3871bf	0.7204856
10	0x3e2f39a4	0.17111832
11	0x3e87d645	0.26530662
12	0x3fa9223e	1.3213575
13	0x3f5db37f	0.86602014
14	0x3fb2dfc1	1.3974534

row_net.0.bias f4 [15]
0	0x3e6bc706	0.2302514
1	0x3e0fd838	0.14047325
2	0x3d3c6171	0.045991365
3	0x3e4c6196	0.19959101
4	0x3e3d9c50	0.1851666
5	0x3e378123	0.17920355
6	0x3df9557b	0.12174507
7	0x3cf685c3	0.03009308
8	0xbe389abd	-0.18027778
9	0x3d9f630d	0.07782564
10	0xbc441fbe	-0.011970459
11	0xbd7ee6f1	-0.06223196
12	0x3e157109	0.145939
13	0xbe0fe9b4	-0.14053994
14	0x3e502389	0.20326056

row_net.0.running_mean f4 [15]
0	0xbd15517c	-0.036454663
1	0xbcc890ca	-0.024483103
2	0xbc8b7adf	-0.017026363
3	0xbd58d9a6	-0.05294194
4	0xbc847276	-0.01616786
5	0xbd53fdb1	-0.05175561
6	0xbd252f6b	-0.040328424
7	0x3b4c7130	0.0031195395
8	0xbcd7d333	-0.026345825
9	0x3d0efe87	0.034910705
10	0xbd134cca	-0.035961904
11	0xbd134cca	-0.035961904
12	0x3d7cde8a	0.061735667
13	0x3d484e79	0.048902962
14	0xbc47fbe2	-0.01220605

row_net.0.running_var f4 [15]
0	0x3f7ba901	0.98304754
1	0x3f671054	0.9025929
2	0x3f7fab14	0.9987042
3	0x3eab12cc	0.33412778
4	0x3f8641dc	1.0488849
5	0x3f1aed22	0.60518086
6	0x3f83a855	1.0285746
7	0x3f866160	1.0498466
8	0x3f734c3f	0.9503822
9	0x3f8a0e7b	1.0785669
10	0x3f79e51c	0.9761522
11	0x3f79e51c	0.9761522
12	0x3f90daa5	1.1316725
13	0x3f852f5d	1.0405079
14	0x3f89d532	1.0768187

row_net.1.weight f4 [64, 15]
0	0xbce0622e	-0.027390566
1	0xbda5b4ae	-0.080911025
2	0xbd4985f7	-0.049200024
3	0x3e97b7cc	0.29632413
4	0x3ea54944	0.3228246
5	0xbe27910c	-0.16363925
6	0x3cd4ec32	0.025991533
7	0x3ca645df	0.020296989
8	0x3cafe1a9	0.021469908
9	0xbf5d1dce	-0.86373603
10	0xbd4954b3	-0.04915304
11	0xbc5ee9f7	-0.013605586
12	0xbc97248d	-0.018450046
13	0x3d85da75	0.06535808
14	0xbdaab8df	-0.083360426
15	0x3da01097	0.07815664
16	0x3e04b5c1	0.12959959
17	0x3dd2b19f	0.10287785
18	0x3c9aa6c2	0.018878344
19	0x3e0b7755	0.1361974
20	0xbc83ecd1	-0.016104134
21	0x3e5de87a	0.21670714
22	0xbf09b9c7	-0.537991
23	0x3e09eecb	0.13469999
24	0x3e0be086	0.13659868
25	0xbd9f288b	-0.07771405
26	0x3c0e014f	0.008667304
27	0xbd8d7004	-0.06906131
28	0x3e190994	0.1494506
29	0x3dc0ab5a	0.09407683
30	0xbd938bbd	-0.07204387
31	0xbddfd003	-0.10928347
32	0xbedbc47d	-0.42923346
33	0xbf39abd0	-0.7252779
34	0xbe542683	-0.20717816
35	0xbdbad9c2	-0.09123565
36	0xbddc6982	-0.107623115
37	0x3d93fd39	0.07226033
38	0x3e253e7c	0.16137117
39	0xbc6916cb	-0.014226626
40	0xbd59f8c4	-0.053215757
41	0x3e3f9594	0.18709403
42	0xbdec439b	-0.11536332
43	0x3d997265	0.07492522
44	0x3f06d12a	0.5266291
45	0x3e92938d	0.28628197
46	0xbe0d0862	-0.13772729
47	0x3dd69dd1	0.1047932
48	0x3ca9d00d	0.02072909
49	0x3e1f4926	0.15555248
50	0xbc7b0cb0	-0.015322849
51	0xbdb497b3	-0.08817997
52	0x3e56c19b	0.20972292
53	0xbe8cfcac	-0.27536523
54	0x3e97b3e5	0.29629436
55	0xbcbca84c	-0.023029469
56	0xbe230b74	-0.15922338
57	0x3d3fa8f8	0.046792
58	0x3eb6306b	0.35583815
59	0x3dd4f494	0.10398212
60	0xbea10413	-0.3144842
61	0x3dd8821e	0.10571693
62	0x3e289543	0.16463189
63	0xbc0c7be8	-0.008574463
64	0xbdb646b6	-0.08900206
65	0xbd9d592a	-0.07683022
66	0xbe5e54bd	-0.21712013
67	0xbde41364	-0.11136511
68	0x3dcc807e	0.099854454
69	0xbe961508	-0.2931292
70	0xbe1abd03	-0.15111165
71	0x3e102159	0.14075221
72	0xbf5b488b	-0.85657567
73	0x3ce4675d	0.027881319
74	0xbd462957	-0.04837927
75	0x3ed524ae	0.41629547
76	0x3d8fd02b	0.07022127
77	0x3dd356fa	0.10319324
78	0x3da039f9	0.078235574
79	0x3e045b97	0.12925564
80	0x3decfba1	0.11571432
81	0xbf14765a	-0.5799309
82	0x3e877070	0.2645297
83	0xbde5679c	-0.112014025
84	0x3e9b9c6f	0.30392787
85	0x3cdf37f0	0.027248353
86	0xbc244f04	-0.010028604
87	0x3e02adf5	0.12761672
88	0x3e0d6015	0.13806184
89	0x3ce9d733	0.028544998
90	0xbc9abdae	-0.018889274
91	0xbd568848	-0.05237606
92	0x3c877908	0.016537204
93	0xbf3a1661	-0.726904
94	0xbe539af0	-0.20664573
95	0xbe646e28	-0.22307646
96	0x3e9a1651	0.3009515
97	0xbe703428	-0.23457396
98	0xbcda2b9f	-0.026632128
99	0x3e816f14	0.25280058
100	0xbe07caee	-0.13261005
101	0x3def2faa	0.11679013
102	0xbc8109f9	-0.015751826
103	0x3cf244b7	0.029573781
104	0x3e6a1919	0.22861136
105	0x3e1e3d5d	0.15453096
106	0xbd101127	-0.035172608
107	0xbe4cfc82	-0.20018199
108	0x3c4232fa	0.011852974
109	0x3d8ad8a8	0.06779605
110	0xbb3c3846	-0.0028720065
111	0xbdea0377	-0.11426442
112	0x3ed6c112	0.41944176
113	0x3bd2095a	0.006409806
114	0xbe941a9a	-0.28926545
115	0xbe28070d	-0.1640894
116	0xbe0d44b2	-0.13795736
117	0x3d9996e4	0.07499483
118	0x3e982031	0.2971206
119	0x3de85498	0.1134426
120	0x3e733fdf	0.23754834
121	0x3e9aa1c5	0.30201545
122	0xbc035702	-0.00801635
123	0xbbae3282	-0.0053160796
124	0x3f8b39af	1.0876979
125	0x3ddd5fcf	0.1080929
126	0x3ca6e663	0.020373529
127	0x3d129a1b	0.035791498
128	0x3d65b8d9	0.056084488
129	0x3b5837bd	0.0032992207
130	0xbc3fc833	-0.011705446
131	0x3d057271	0.032579843
132	0xbc891b5a	-0.016736675
133	0x3c65ff81	0.014037968
134	0x3f84b88c	1.0368819
135	0xbe783e53	-0.24242525
136	0x3e471509	0.19441618
137	0x3d635553	0.055501293
138	0xbebfbea0	-0.37450123
139	0xbeacf2a1	-0.3377886
140	0x3dfd4108	0.12365919
141	0x3d218b5c	0.039439544
142	0xbd737957	-0.05944189
143	0x3dad7a01	0.08470536
144	0xbdac1f62	-0.08404423
145	0xbb8e66c3	-0.0043457462
146	0xbe089893	-0.13339452
147	0x3ba30eef	0.0049761455
148	0xbeed661c	-0.46366966
149	0xbe8040b7	-0.25049374
150	0xbc0a1c59	-0.00842961
151	0xbc9550e2	-0.018227044
152	0xbc1974ad	-0.009366197
153	0x3d6a709a	0.05723629
154	0x3e0df0bc	0.13861364
155	0xbc8dba99	-0.01730089
156	0xbc3ebb0e	-0.011641277
157	0xbe1714e6	-0.14754066
158	0x3e7726a4	0.24135834
159	0xba8c482b	-0.001070266
160	0x3d515fcd	0.051116753
161	0x3dac3b83	0.084097885
162	0xbf058ea6	-0.5217079
163	0xbd8bc286	-0.06824212
164	0xbda68f11	-0.081327565
165	0xbcfab3b5	-0.03060327
166	0x3dcbbd2f	0.09948193
167	0xbe5e60a6	-0.21716556
168	0xbd94e208	-0.072696745
169	0xbda1e4fe	-0.07905005
170	0x3db44235	0.088016905
171	0xbe73708d	-0.23773403
172	0x3db541eb	0.088504635
173	0x3e8ca9ee	0.27473396
174	0x3d7638eb	0.060112875
175	0x3e135e64	0.14391476
176	0x3d9577f3	0.07298269
177	0xbdac31e9	-0.08407957
178	0xbe3a48ca	-0.1819183
179	0xbe0bb22a	-0.13642183
180	0xbdaf5f7f	-0.08563136
181	0x3cc94aec	0.024571858
182	0x3df3b868	0.11900407
183	0x3e5fdd2a	0.21861711
184	0xbcdaeb89	-0.02672364
185	0x3e0e1c50	0.13877988
186	0xbd2c5c9a	-0.0420805
187	0xbe231362	-0.15925363
188	0xbdfabd4d	-0.122431375
189	0x3e9d87fb	0.30767807
190	0x3d4538ca	0.04814986
191	0x3e6e86a8	0.23293555
192	0x3c9982eb	0.018739184
193	0xbea6c905	-0.3257524
194	0xbe3cfce2	-0.18455842
195	0x3e1c9f51	0.1529515
196	0x3e2742b2	0.16334036
197	0x3e55c112	0.20874432
198	0xbf25d55b	-0.6477868
199	0xbecd2533	-0.40067443
200	0x3dc45afd	0.09587667
201	0x3dca8367	0.09888344
202	0xbe09bbcd	-0.13450547
203	0xbca3da78	-0.020001635
204	0x3e241155	0.16022237
205	0xbcf3cb33	-0.029759979
206	0x3cd35b22	0.025800291
207	0x3d3d336a	0.04619161
208	0xbe9a795c	-0.30170715
209	0xbdf31a11	-0.11870206
210	0x3cf9fcf0	0.030516118
211	0x3e572487	0.21010028
212	0xbec9a77d	-0.39385596
213	0xbeb5ed4d	-0.3553261
214	0xbdb3de4d	-0.08782635
215	0x3de05e78	0.109555185
216	0xbdd0e67b	-0.10200211
217	0x3df2de29	0.1185878
218	0x3ef3eea9	0.4764302
219	0xbbd9b7c9	-0.0066442234
220	0xbced4099	-0.028961467
221	0x3d075557	0.03304037
222	0xbc6e5e0c	-0.01454879
223	0xbe2f5632	-0.17122725
224	0xbe1f0522	-0.15529302
225	0x3e194d3d	0.1497087
226	0xbdb41fbd	-0.08795116
227	0x3e5c0970	0.21487975
228	0x3e8c2bd3	0.27377185
229	0xbd5c872b	-0.053839844
230	0xbe23bca0	-0.15989923
231	0x3d41f938	0.047356814
232	0xbd12405b	-0.035705905
233	0xbdfa3644	-0.122173816
234	0xbce384c2	-0.027773265
235	0xbd236681	-0.039892677
236	0xbcd75ac1	-0.026288392
237	0xbef407b4	-0.47662127
238	0xbc0e306c	-0.008678537
239	0x3d61f794	0.05516775
240	0x3d47e1c6	0.0487993
241	0x3d562d0e	0.05228906
242	0xbdcce8cd	-0.10005341
243	0x3b23570e	0.0024923715
244	0x3df4300d	0.119232275
245	0x3e2370e6	0.15961036
246	0x3e0e6f07	0.13909541
247	0xbef3b251	-0.47596982
248	0xbe710f75	-0.23541053
249	0x3da63011	0.08114637
250	0x3e856f91	0.2606168
251	0x3ee00a1b	0.4375771
252	0x3db545eb	0.088512264
253	0x3e144408	0.14479077
254	0x3d25a67e	0.040441982
255	0xbd4cc124	-0.04998888

row_net.1.bias f4 [64]
0	0xbd058ea8	-0.03260675
1	0xbdc72a62	-0.09724881
2	0x3cf957a7	0.030437304
3	0xbd9fe0fa	-0.07806583
4	0xbed32a4a	-0.41243201
5	0xbeba79cc	-0.3642105
6	0xbeb700d6	-0.35742825
7	0xbe42c06a	-0.19018713
8	0x3e76bead	0.24096175
9	0xbe97fdbc	-0.2968577
10	0x3e180052	0.14843872
11	0x3d94f5e3	0.07273462
12	0xbe7efd22	-0.2490125
13	0xbe804f9a	-0.2506073
14	0x3dd6aa86	0.104817435
15	0x3d89e10b	0.06732377
16	0xbd756508	-0.059910804
17	0xbeabca89	-0.3355296
18	0xbda4d161	-0.08047748
19	0x3d83e0a7	0.064393334
20	0xbe3ebbd6	-0.18626341
21	0xbdc7c457	-0.09754246
22	0xbe92c5b9	-0.28666475
23	0xbe6fa838	-0.23404014
24	0x3c1bcaf9	0.009508842
25	0xbe46b0e3	-0.19403414
26	0xbe8b12ec	-0.27162874
27	0x3ce188a5	0.027530978
28	0x3c638efb	0.01388907
29	0xbe34d331	-0.17658688
30	0xbe7f5f30	-0.24938655
31	0xbdcda9c3	-0.10042145
32	0xbe72c1c1	-0.23706724
33	0xbe7ea87e	-0.24868962
34	0x3db3af86	0.08773713
35	0xbe1d0551	-0.1533406
36	0x3c0efae7	0.008726812
37	0xbdc34ddd	-0.095363356
38	0x3caffcde	0.021482881
39	0xbeb81bfb	-0.35958847
40	0xbdeefc79	-0.11669249
41	0xbd95d0e6	-0.07315235
42	0xbe8df2a5	-0.27724186
43	0x3e3fdc15	0.18736298
44	0xbe946366	-0.28982085
45	0xbe5bbff5	-0.21459945
46	0xbe8d6bb7	-0.27621242
47	0xbeb01b2a	-0.34395725
48	0x3d686796	0.056739412
49	0xbe55965d	-0.2085814
50	0xbe5757bf	-0.21029566
51	0xbc4fa73a	-0.012674147
52	0xbc020404	-0.007935528
53	0x3e1bd2cf	0.15217136
54	0x3e817d3f	0.25290868
55	0xbe0fb8be	-0.14035317
56	0xbd52b128	-0.05143848
57	0xbdcad182	-0.09903242
58	0xbddcbf30	-0.107786536
59	0xbdfd2eab	-0.12362417
60	0xbe807503	-0.25089273
61	0xbee3bc60	-0.44479656
62	0xbe2e75b6	-0.1703709
63	0xbe93e3d1	-0.28884748

row_net.4.weight f4 [32, 64]
0	0xbe1b1e33	-0.15148239
1	0x3d8636e5	0.06553439
2	0x3d097847	0.03356197
3	0xbd053213	-0.032518458
4	0xbe7b4556	-0.24538168
5	0x3d1e1cb7	0.038601603
6	0x3ce44c0e	0.027868297
7	0xbc7f0480	-0.015565038
8	0xbe8d0e43	-0.27549943
9	0x3db3fec2	0.087888256
10	0xbe746e70	-0.23870254
11	0x3d1f0ef4	0.03883262
12	0xbc80fc77	-0.015745385
13	0x3da3f94e	0.080065355
14	0x3d86a4cf	0.065744035
15	0xbe86bd49	-0.26316288
16	0x3bac97fa	0.0052671405
17	0xbe9a2619	-0.3010719
18	0x3e17b924	0.1481672
19	0xba6d156b	-0.0009044024
20	0xbad49178	-0.001621767
21	0x3dbd6666	0.092480466
22	0x3ca741fa	0.020417202
23	0x3d4a1674	0.04933782
24	0xbe9fe7ad	-0.31231442
25	0x3df96510	0.12177479
26	0xbd1d9825	-0.038475174
27	0x3b19b86d	0.0023455874
28	0xbdb344a8	-0.087533295
29	0xbe024be1	-0.12724258
30	0x3d29e6c5	0.041479845
31	0x3e03aed5	0.12859662
32	0xbda87c98	-0.08226889
33	0x3dc46203	0.09589007
34	0x3d07a30d	0.03311448
35	0x3d4777d5	0.048698265
36	0x3ddbf5c3	0.10740235
37	0x3e114f0f	0.14190315
38	0x3c41ed82	0.011836411
39	0x3d40c5dc	0.047063693
40	0x3d410d43	0.047131788
41	0xbe2314a9	-0.1592585
42	0xbdc028e9	-0.09382803
43	0xbe5cfac7	-0.21580039
44	0xbe811167	-0.2520859
45	0xbcba3132	-0.022728536
46	0xbdc39dae	-0.095515594
47	0xb9ec3e5b	-0.00045059886
48	0x3d1b170a	0.03786377
49	0x3bc2dfd7	0.005947094
50	0xbe880fb7	-0.2657449
51	0xbc61dda8	-0.013785757
52	0xbdf80394	-0.121100575
53	0xbcf41dda	-0.02979939
54	0xbebc56b1	-0.3678489
55	0x3dcd898b	0.10036
56	0x3d0cee23	0.034406792
57	0x3e07bfef	0.1325681
58	0xbd7b2107	-0.061310794
59	0x3d5b31ed	0.05351441
60	0x3d20c42e	0.03924959
61	0x3dc5fab8	0.096669614
62	0xbd8ef910	-0.06981099
63	0xbe6b7a56	-0.22995886
64	0xbd0f4a50	-0.03498298
65	0xbc11632c	-0.008873742
66	0xbb9d4b3d	-0.004800229
67	0xbd0a831a	-0.033816434
68	0x3bcd410b	0.0062638572
69	0xbc7d2ecf	-0.015453055
70	0x3d1d8308	0.03845504
71	0xbc7039f3	-0.014662254
72	0xbc131861	-0.00897798
73	0x3bf9c5fb	0.007622478
74	0x3c0aa3ab	0.008461873
75	0xbb7baf4f	-0.0038404053
76	0xbca98d06	-0.020697128
77	0x3ca282e1	0.019837799
78	0x3d47aa86	0.04874661
79	0xbd18862f	-0.037237342
80	0xbc7a7967	-0.015287734
81	0x3b8444f7	0.0040365416
82	0xbcea581b	-0.028606465
83	0xbd5f3f9f	-0.054504033
84	0xbb92c6d4	-0.0044792686
85	0xbd202229	-0.039095078
86	0x3c8d13c3	0.017221337
87	0xbb5f3df5	-0.003406403
88	0xbce4cfbd	-0.027931089
89	0xbbb30851	-0.005463638
90	0xbd178770	-0.036994398
91	0x3c126809	0.008935937
92	0x3bfb1cb3	0.0076633333
93	0xbcd5efd8	-0.026115343
94	0x3b81e38d	0.0039638937
95	0xbad4ae5d	-0.0016226281
96	0xbd32357c	-0.043508038
97	0x3c9f854c	0.01947274
98	0xbd1b06ea	-0.03784839
99	0xba87614a	-0.0010328677
100	0x3c2b3cd0	0.010451511
101	0xbc2d11b7	-0.010563306
102	0x3b8b1e25	0.004245537
103	0x3c53ff6e	0.012939317
104	0xbd833a7d	-0.0640764
105	0xbd31b053	-0.043381047
106	0xbd50a40d	-0.0509377
107	0x3a821d6c	0.0009926981
108	0xbcd37f78	-0.025817618
109	0xbbd0f1f7	-0.0063765007
110	0xbc671821	-0.014104874
111	0x3d1116d5	0.035422165
112	0x3d3400ec	0.04394619
113	0x3b4c3ada	0.0031163008
114	0xbcaa2d0b	-0.020773431
115	0xbbf98a19	-0.0076153395
116	0x3b59eb34	0.0033251764
117	0xbb75697e	-0.0037446911
118	0xbca8c7b3	-0.020603037
119	0xbcaac1f7	-0.020844443
120	0xbd2de495	-0.04245432
121	0x3bc02b12	0.0058645094
122	0xbd44252a	-0.047887005
123	0x3d53977b	0.051658135
124	0xb9caa393	-0.00038650315
125	0xbbd2e815	-0.0064363577
126	0xbc94cfb9	-0.018165456
127	0xbc3a8859	-0.011385047
128	0x3e85f952	0.2616678
129	0xbda74fba	-0.081695035
130	0xbee98be2	-0.45614535
131	0x3e6ee976	0.23331246
132	0xbe04c599	-0.12966003
133	0x3e01d03b	0.1267709
134	0xbdbd7ee2	-0.092527166
135	0x3db88c1e	0.090111
136	0x3db59e93	0.08868136
137	0xbdd1f91e	-0.102525935
138	0x3dbcf7c1	0.09226943
139	0xbdea8ca3	-0.114526056
140	0x3e0a5e57	0.1351255
141	0xbe867d9a	-0.262677
142	0xbe3afe19	-0.18260993
143	0xbce18336	-0.027528387
144	0x3d1345c8	0.03595522
145	0xbe1d3a1c	-0.15354198
146	0x3e2e9c3e	0.17051789
147	0xbe7e5b93	-0.2483962
148	0x3c86963f	0.016429065
149	0xbe56bd66	-0.20970687
150	0x3b1139df	0.0022159738
151	0xbdd27399	-0.10275955
152	0x3d0b5f48	0.034026414
153	0xbe7fd875	-0.24984916
154	0x3cc70c86	0.024297964
155	0xbe8ac06d	-0.27099934
156	0xbd544aeb	-0.05182926
157	0x3de363c0	0.1110301
158	0xbd5e6f32	-0.054305263
159	0x3e4c104c	0.19928092
160	0xbd5eb481	-0.05437136
161	0xbe098bf9	-0.13432302
162	0xbdd5ee3b	-0.104458295
163	0xbe47c399	-0.19508208
164	0x3dfe8dc2	0.12429382
165	0xbddfe024	-0.10931423
166	0xbd6a88a9	-0.057259236
167	0xbe831292	-0.25600106
168	0xbe20c834	-0.15701371
169	0x3bcc2585	0.0062300586
170	0xbc9c390f	-0.019070176
171	0xbdd95568	-0.10611993
172	0x3d4c6471	0.049900476
173	0xbd2be98c	-0.041970775
174	0x3b6bd955	0.0035987694
175	0xbde5ca60	-0.112202406
176	0xbe7c121d	-0.24616285
177	0xbe2807c0	-0.16409206
178	0x3d7cc6b9	0.061712954
179	0x3df1d2c1	0.11807776
180	0xbd93ae30	-0.07210958
181	0x3c12abbf	0.00895208
182	0xba96873f	-0.0011484398
183	0x3e04aea9	0.12957253
184	0xbe649bc8	-0.22325051
185	0xbe01a795	-0.12661584
186	0xbd48bb0d	-0.04900651
187	0xbe421b54	-0.18955737
188	0xbe23e300	-0.16004562
189	0xbd16b606	-0.036794685
190	0x3d9639a1	0.073352106
191	0x3dedd927	0.11613684
192	0x3d15e228	0.036592633
193	0x3e40a604	0.1881333
194	0x3d8d124a	0.06888254
195	0x3d0772fb	0.03306864
196	0x3d09aa53	0.0336097
197	0xbe461965	-0.19345625
198	0x3e4bb10d	0.19891758
199	0x3dde9fb2	0.10870303
200	0xbebc953a	-0.368326
201	0xbe195978	-0.14975536
202	0x3b15f5b8	0.0022882055
203	0xbd9255f8	-0.071453035
204	0xbd0ea6b6	-0.034826957
205	0x3d2faf4a	0.042891778
206	0xbd32db00	-0.043665886
207	0x3d995887	0.074875884
208	0x3e2df5e0	0.16988325
209	0x3d9b3b03	0.07579615
210	0xbc0144ae	-0.00788991
211	0xbd1e8a4a	-0.0387061
212	0x3bef0abd	0.0072949813
213	0x3e515ef9	0.20446385
214	0x3df96904	0.12178233
215	0xbdbbd8cb	-0.09172209
216	0x3e1859c3	0.14877991
217	0x3e4f0769	0.2021767
218	0xbde924ce	-0.11383973
219	0xbc1417d0	-0.0090388805
220	0xbe312537	-0.17299353
221	0xbd90e878	-0.0707559
222	0xba5eb3a9	-0.00084953994
223	0xbc0b1486	-0.00848878
224	0xbd8dd3ed	-0.06925187
225	0x3d4c541a	0.049884893
226	0x3dfea14f	0.12433111
227	0x3e18f145	0.14935787
228	0x3bf44d48	0.0074555017
229	0x3e329308	0.174389
230	0x3da16b36	0.07881777
231	0x3e7d37fe	0.2472839
232	0xbd638364	-0.055545226
233	0x3e306937	0.17227636
234	0xbe13675d	-0.14394899
235	0xbe1d25cb	-0.15346448
236	0xbd237634	-0.03990765
237	0x3e345ded	0.17613955
238	0xbe2beaa2	-0.16788724
239	0x3c5c6920	0.013452798
240	0x3ad90cf4	0.0016559646
241	0x3df12c7f	0.11776065
242	0x3d161fe6	0.036651514
243	0xbd76676d	-0.06015723
244	0xbe8a92e3	-0.2706519
245	0xbdc9cdaf	-0.09853684
246	0xbeb1003b	-0.34570488
247	0xbe9bac50	-0.30404902
248	0xbb25fb9f	-0.002532698
249	0xbce9d79c	-0.028545193
250	0xbe61d6f8	-0.2205466
251	0xbdc2d01f	-0.09512352
252	0x3dfe822d	0.12427173
253	0x3de65b71	0.1124791
254	0xbdfe3a75	-0.124134935
255	0xbd03b6b6	-0.03215667

row_net.4.bias f4 [32]
0	0x3e1fe80b	0.15615861
1	0x3abe309d	0.0014510337
2	0x3e6d2311	0.23157908
3	0x3e206da8	0.1566683
4	0x3df559db	0.11980029
5	0xbeada476	-0.33914536
6	0x3da31154	0.079622895
7	0xbd941d40	-0.072321415
8	0x3e5ff179	0.21869458
9	0x3d89e25c	0.06732628
10	0xbcd08cad	-0.025457704
11	0x3dea8404	0.11450961
12	0x3e336224	0.17517906
13	0x3e9f9dcc	0.31175077
14	0x3e911500	0.28336334
15	0x3d201d71	0.039090578
16	0xbc63361e	-0.013867883
17	0xbd957b23	-0.07298877
18	0x3d4cd503	0.05000783
19	0x3e0d821f	0.13819169
20	0xbc32f9e3	-0.010923835
21	0x3cd548eb	0.026035747
22	0x3d29def8	0.041472405
23	0x3e3aa41e	0.18226668
24	0xbd29ebe9	-0.041484747
25	0xbad808fe	-0.0016482172
26	0x9754cb82	-6.8757757e-25
27	0x3d69c6cd	0.057074357
28	0x3d9837ee	0.07432543
29	0x3e34fac4	0.17673784
30	0x3e7b01b8	0.24512374
31	0x3e323858	0.17404306

col_net.0.weight f4 [15]
0	0x8000f1ac	-8.6696e-41
1	0x8000f1ac	-8.6696e-41
2	0x3f95dd3f	1.1708144
3	0x8000f1ac	-8.6696e-41
4	0x8000f1ac	-8.6696e-41
5	0x8000f1ac	-8.6696e-41
6	0x8000f1ac	-8.6696e-41
7	0x8000f1ac	-8.6696e-41
8	0x8000f1ac	-8.6696e-41
9	0x8000f1ac	-8.6696e-41
10	0x8000f1ac	-8.6696e-41
11	0x8000f1ac	-8.6696e-41
12	0x8000f1ac	-8.6696e-41
13	0x8000f1ac	-8.6696e-41
14	0x8000f1ac	-8.6696e-41

col_net.0.bias f4 [15]
0	0xba1a3698	-0.0005882769
1	0x39f0e95b	0.0004595023
2	0x3e4a76df	0.19771908
3	0xbd0193c0	-0.031635046
4	0xb88c1de3	-6.681287e-05
5	0xba57e75c	-0.00082360744
6	0xb935746b	-0.00017304874
7	0xbca695da	-0.020335127
8	0xb9b3db08	-0.00034304732
9	0x38f94bed	0.000118873875
10	0x3c062aca	0.008188913
11	0xbd29cce2	-0.041455157
12	0xb9fa2a3a	-0.00047715177
13	0x3a0cb1bd	0.0005367061
14	0x3b32559e	0.0027211676

col_net.0.running_mean f4 [15]
0	0x00000000	0.0
1	0x00000000	0.0
2	0xbcfd47c0	-0.030918002
3	0x00000000	0.0
4	0x00000000	0.0
5	0x00000000	0.0
6	0x00000000	0.0
7	0x00000000	0.0
8	0x00000000	0.0
9	0x00000000	0.0
10	0x00000000	0.0
11	0x00000000	0.0
12	0x00000000	0.0
13	0x00000000	0.0
14	0x00000000	0.0

col_net.0.running_var f4 [15]
0	0x00000004	6e-45
1	0x00000004	6e-45
2	0x3f7d40ba	0.9892689
3	0x00000004	6e-45
4	0x00000004	6e-45
5	0x00000004	6e-45
6	0x00000004	6e-45
7	0x00000004	6e-45
8	0x00000004	6e-45
9	0x00000004	6e-45
10	0x00000004	6e-45
11	0x00000004	6e-45
12	0x00000004	6e-45
13	0x00000004	6e-45
14	0x00000004	6e-45

col_net.1.weight f4 [64, 15]
0	0xae94618a	-6.747587e-11
1	0x2be47612	1.6233145e-12
2	0xbb0028ef	-0.0019555648
3	0x300f59c4	5.215066e-10
4	0x2c62bdf6	3.2221981e-12
5	0xae2570f9	-3.7616996e-11
6	0xae0464a2	-3.0102705e-11
7	0xb0a1496c	-1.173516e-09
8	0x2e1be008	3.54419e-11
9	0x2e08f10c	3.1136912e-11
10	0xb03a3136	-6.773634e-10
11	0xb0e4ec26	-1.6656301e-09
12	0xad0a6177	-7.866033e-12
13	0xaab276e1	-3.170164e-13
14	0xafda59af	-3.9717693e-10
15	0xbb9da9f3	-0.0048115193
16	0xb89e6ac8	-7.553917e-05
17	0xbec2ab89	-0.38021496
18	0x3c992aff	0.01869726
19	0xba819fe7	-0.0009889574
20	0xbad9b4a9	-0.0016609627
21	0xb7fb30d2	-2.9944265e-05
22	0x3c038f94	0.008029837
23	0x3a8c2375	0.0010691719
24	0x3a02a8e2	0.0004984272
25	0xb9b97e5a	-0.0003538009
26	0x3ca0e74b	0.01964154
27	0xbb501f42	-0.0031756912
28	0xb8f49b84	-0.00011663794
29	0x3b354639	0.0027660264
30	0x1a882e6c	5.632328e-23
31	0x9b968c16	-2.4905947e-22
32	0x9e5b4b74	-1.1609367e-20
33	0x9d30c9f6	-2.3397817e-21
34	0x1a834f04	5.4307987e-23
35	0x9993e091	-1.5290145e-23
36	0x9ac2dc04	-8.0591974e-23
37	0x1d5f04c3	2.9516266e-21
38	0x9a40a143	-3.9834936e-23
39	0x9a4c42af	-4.2240078e-23
40	0x9d49a6e2	-2.6688405e-21
41	0x9e0ce848	-7.459573e-21
42	0x9bad91f7	-2.8714777e-22
43	0x9b524062	-1.7391596e-22
44	0x9c6a1c3f	-7.7460613e-22
45	0xbb83ba7c	-0.0040200334
46	0x39841a72	0.00025196705
47	0xbe3d2ced	-0.18474169
48	0x3b829b84	0.003985824
49	0xba471949	-0.00075950153
50	0xba7d7190	-0.0009668106
51	0xb894fd28	-7.104344e-05
52	0xbb9ad937	-0.004725601
53	0xb8ac326c	-8.210991e-05
54	0x39eecdbe	0.00045548187
55	0x3bbee9f3	0.0058262288
56	0x3b0fb090	0.0021925308
57	0xba259a30	-0.0006317226
58	0x39a4bd40	0.0003142152
59	0x3b52df28	0.0032176469
60	0x3c2d2c8f	0.010569706
61	0xb8af3555	-8.354584e-05
62	0xbeb27ba9	-0.3485997
63	0x3d28eed0	0.041243374
64	0xba6c7417	-0.0009019984
65	0x3920e2fc	0.00015343347
66	0x3bab0d81	0.0052201157
67	0x3cfa4b6a	0.030553538
68	0x3b22e4c5	0.0024855596
69	0x3ba8f030	0.0051555857
70	0xbcdba7c4	-0.026813395
71	0x3d587bdf	0.052852508
72	0xbb188a47	-0.002327578
73	0xb92875d3	-0.00016065621
74	0xbc3a605f	-0.011375516
75	0xb4ba4ce9	-3.470116e-07
76	0x356f8571	8.922862e-07
77	0x3a2ff44c	0.0006712123
78	0xb9019ad4	-0.00012360077
79	0xb54084a2	-7.171858e-07
80	0x35fde216	1.8915769e-06
81	0xb4f459c9	-4.551387e-07
82	0xb74d3988	-1.2232347e-05
83	0xb5867d15	-1.0020182e-06
84	0x34a68678	3.1017748e-07
85	0xb710d142	-8.6317905e-06
86	0xb8fdecb9	-0.00012108073
87	0xb5fadb60	-1.8690298e-06
88	0x3588732b	1.0166308e-06
89	0x373747b7	1.0924347e-05
90	0x3b982252	0.004642763
91	0x38ee682f	0.0001136813
92	0x3e830c80	0.25595474
93	0x3b13a7f3	0.0022530525
94	0x3acbe2d5	0.0015555272
95	0x3aa73121	0.001275573
96	0xba57426b	-0.0008211496
97	0x3c1e68b6	0.00966852
98	0x38c69cdd	9.470594e-05
99	0xbabb211f	-0.0014276839
100	0xbc5f2b73	-0.013621199
101	0x3b5eadb2	0.0033978042
102	0x3a563108	0.00081707584
103	0x392200de	0.00015449847
104	0xbbba2766	-0.005680966
105	0x3baa0429	0.005188484
106	0xba9c7990	-0.0011938084
107	0xbec15942	-0.3776341
108	0x3cb72c12	0.022359882
109	0xbad34732	-0.001611924
110	0xbb20b0b7	-0.0024519393
111	0x3b4138ee	0.0029483396
112	0x3c769b40	0.015051663
113	0x3a6b3b33	0.000897336
114	0x3b169bc5	0.002298103
115	0xbb3847ff	-0.0028119085
116	0x3ccc74e1	0.024958076
117	0xba0f8535	-0.00054748665
118	0xbaa9bf25	-0.0012950642
119	0xbbc1d794	-0.0059155915
120	0x3a8ba8c2	0.0010655152
121	0xbab9a075	-0.00141622
122	0x3e527813	0.20553617
123	0xbb85ee67	-0.0040872577
124	0xb8cc2a22	-9.735326e-05
125	0xbb111099	-0.0022135137
126	0xb9bd7018	-0.00036132406
127	0xbb236c5f	-0.002493642
128	0xb9b9cd8a	-0.00035439088
129	0x395f310f	0.00021285213
130	0x3a910fd0	0.0011067335
131	0xbbb84aab	-0.0056241355
132	0xba87b27c	-0.0010352875
133	0xbad16bdf	-0.0015977583
134	0xba07bcc7	-0.00051779713
135	0xb480db25	-2.4001307e-07
136	0xb9b13c40	-0.0003380496
137	0x3e39bc29	0.18138184
138	0x3b71ffc7	0.0036926137
139	0xb952e14f	-0.00020111095
140	0xba07bbf2	-0.00051778473
141	0xb7ef02a6	-2.8492253e-05
142	0x3b4032a7	0.0029327066
143	0xb984e616	-0.0002534843
144	0xb93131a7	-0.00016898532
145	0xb9ad75d1	-0.0003308491
146	0x3bf1aa5f	0.007375046
147	0xb8b6df38	-8.720014e-05
148	0xb9c6466c	-0.0003781797
149	0x38f9a5bd	0.000119041164
150	0xbc6a503c	-0.014301356
151	0xba24f687	-0.0006292839
152	0xbe99a44f	-0.3000817
153	0xbc1c5591	-0.009541885
154	0xbbc12aab	-0.005894979
155	0xbb2685fb	-0.0025409448
156	0x3a9d398f	0.0011995303
157	0xbcac5a27	-0.021039082
158	0x3aef6795	0.0018265123
159	0x3b196eb8	0.002341194
160	0x3cc32ca7	0.023825003
161	0xbb833cb3	-0.0040050386
162	0xbb101dee	-0.0021990496
163	0xba2be9e6	-0.0006557986
164	0x3ca1720a	0.019707698
165	0x350986fc	5.1232905e-07
166	0x3517a1cb	5.6487323e-07
167	0x3ab6065a	0.0013887391
168	0x38d66cf9	0.00010224613
169	0xb591a095	-1.0850077e-06
170	0x36760e5c	3.6665215e-06
171	0xb5872d69	-1.00715e-06
172	0x388cc6f0	6.712775e-05
173	0x35283683	6.26642e-07
174	0x356d735c	8.845725e-07
175	0xb77f3e0a	-1.5213629e-05
176	0x390f7520	0.00013681175
177	0xb69ea475	-4.7279123e-06
178	0x352ab6fd	6.359622e-07
179	0xb6b8677f	-5.495676e-06
180	0xbb5f7cb6	-0.0034101433
181	0x39543e4b	0.00020241101
182	0xbe6dc52d	-0.23219748
183	0x3c2505a7	0.010072148
184	0xba9f9b63	-0.0012177046
185	0xbaa5568c	-0.0012614294
186	0x38ab1ea3	8.159622e-05
187	0x3b181e8c	0.0023211567
188	0x39928433	0.00027945786
189	0x38927ddf	6.985268e-05
190	0x3b5df742	0.00338693
191	0x3c6e19de	0.014532534
192	0xb9e8369f	-0.00044291184
193	0x397f627b	0.00024355382
194	0x3b38001e	0.0028076242
195	0x80003d88	-2.2073e-41
196	0x8000ff86	-9.1665e-41
197	0x3729d575	1.0122884e-05
198	0x8000a999	-6.084e-41
199	0x0000bc37	6.7519e-41
200	0x800042f5	-2.402e-41
201	0x80006688	-3.6781e-41
202	0x0000addb	6.2368e-41
203	0x800030f4	-1.7561e-41
204	0x0002342f	2.02391e-40
205	0x80011abd	-1.01427e-40
206	0x80009146	-5.2114e-41
207	0x800090dc	-5.1966e-41
208	0x000001df	6.71e-43
209	0x0000ad19	6.2096e-41
210	0x3348e4cc	4.677422e-08
211	0xb4bb5f91	-3.4900998e-07
212	0x3b2ec1fe	0.0026665921
213	0x36f9ef5b	7.448643e-06
214	0xb52ea2b0	-6.505679e-07
215	0xb607e90c	-2.0252219e-06
216	0xb5025b93	-4.856203e-07
217	0xb71f31f5	-9.48877e-06
218	0xb53abeaa	-6.956785e-07
219	0x35036496	4.8947675e-07
220	0x35920780	1.088003e-06
221	0x382d361a	4.12968e-05
222	0xb5af4fbb	-1.3061721e-06
223	0xb4d9b7a6	-4.0553022e-07
224	0x366a5216	3.4916497e-06
225	0xbb10489d	-0.0022015937
226	0xb99b88d6	-0.00029665855
227	0x3e932322	0.28737742
228	0xbc405211	-0.011738316
229	0xb98e290a	-0.00027114927
230	0x3980c288	0.00024559
231	0xb8e2f0db	-0.000108213826
232	0xbc126b2b	-0.008936684
233	0x3a095b7f	0.0005239769
234	0xb90af24d	-0.0001325097
235	0xb8cb3948	-9.690464e-05
236	0xbc2e50fe	-0.010639427
237	0x3a5dfb7d	0.00084679556
238	0xb9b43723	-0.00034373355
239	0x3b2c5ea3	0.0026301525
240	0x3c04d94e	0.00810845
241	0x39a26916	0.00030977343
242	0xbe904871	-0.28180268
243	0x3d00b7aa	0.031425156
244	0xbb4851bd	-0.0030566298
245	0x39c13952	0.00036854536
246	0x3b5f91e2	0.0034114053
247	0x3c97c79a	0.018527795
248	0xb9ec4192	-0.0004506228
249	0x3b82f26f	0.0039961855
250	0xbc56e75e	-0.013116686
251	0x3d433a1b	0.047662836
252	0x3aa36dbe	0.0012468619
253	0x39c65247	0.00037826804
254	0xbb6ea5e2	-0.0036414792
255	0xbc194560	-0.009354919

col_net.1.bias f4 [64]
0	0xbb71d473	-0.0036900311
1	0xbe01a29d	-0.12659688
2	0x9fa84296	-7.1260925e-20
3	0xbd124750	-0.03571254
4	0xbe18d53b	-0.14925091
5	0xbb2fbce4	-0.0026815468
6	0x3dd8ffa2	0.10595633
7	0xbe11b396	-0.14228663
8	0xbe1b5f81	-0.1517315
9	0x3d7880d5	0.06066974
10	0x3c250898	0.01007285
11	0xbbb9df10	-0.005672343
12	0xbda436a0	-0.080182314
13	0xb849c00b	-4.810099e-05
14	0xbbf0fdc6	-0.007354471
15	0x3e0579db	0.13034765
16	0xbdbb84bd	-0.09156177
17	0xbced7fbc	-0.028991573
18	0x8191405a	-5.335693e-38
19	0xbe07285d	-0.13198991
20	0x3d273658	0.04082331
21	0x3e2feada	0.17179433
22	0xbc89f32b	-0.016839584
23	0xbb39ad0d	-0.0028331906
24	0x3cbda8e5	0.023151824
25	0x3e5c4bf3	0.21513347
26	0xbd57e10d	-0.05270486
27	0xa5d30540	-3.6606223e-16
28	0xbe199438	-0.14997947
29	0x83ada52f	-1.020595e-36
30	0xb8e6470c	-0.00010980488
31	0xbdffed5b	-0.12496444
32	0x3e1e7c6d	0.15477152
33	0x3e3ca353	0.18421678
34	0xb828adfc	-4.0216357e-05
35	0xbd8a09d0	-0.06740153
36	0xbaa8e0a8	-0.0012884336
37	0x3e30cd2d	0.17265768
38	0xbd6f3ba3	-0.058406483
39	0xbb9adfc6	-0.004726383
40	0x9c80a070	-8.511802e-22
41	0x3ddb1821	0.106979616
42	0xbe1d57eb	-0.1536557
43	0xbd0cd9b7	-0.034387317
44	0x3d6e03bc	0.05810903
45	0xbdf2d412	-0.118568555
46	0x3e0aad46	0.13542661
47	0xbc1982c4	-0.009369556
48	0xb9d50927	-0.00040633345
49	0xbe495ebc	-0.19665045
50	0x3e47ec3a	0.19523707
51	0xb7a5ad70	-1.9750296e-05
52	0xbddebb08	-0.10875517
53	0x3df499e7	0.11943417
54	0x3e300e7c	0.17193025
55	0xbdf8a30b	-0.12140473
56	0x89d276f1	-5.0667513e-33
57	0xbde7ef6b	-0.11324962
58	0xbb24380a	-0.0025057816
59	0x3e0de6e4	0.13857609
60	0xbdd91c1d	-0.10601065
61	0x3e3b0d48	0.18266785
62	0xbe15f2ef	-0.14643453
63	0x3e5a61d9	0.21326388

col_net.4.weight f4 [32, 64]
0	0x0001218c	1.0387e-40
1	0x323defa0	1.1055732e-08
2	0x0003a219	3.33656e-40
3	0x287314f7	1.3493756e-14
4	0xb0f6313a	-1.7912847e-09
5	0x00012906	1.06552e-40
6	0xbad621e3	-0.0016337003
7	0x31e16879	6.560239e-09
8	0xb7a57490	-1.9723811e-05
9	0xb88ef78b	-6.817196e-05
10	0xb12985f7	-2.4668887e-09
11	0x0000869e	4.8292e-41
12	0xa03ba5ee	-1.5894418e-19
13	0x8000c8be	-7.2013e-41
14	0xa7d318cb	-5.8591145e-15
15	0xba8e8912	-0.001087459
16	0xada17ebd	-1.8359864e-11
17	0xb12d14ce	-2.518664e-09
18	0x00032baa	2.9117e-40
19	0xafd97e71	-3.9561912e-10
20	0xb9de36b1	-0.00042383888
21	0xbb10a145	-0.002206878
22	0x0000ac9d	6.1922e-41
23	0x00049863	4.22008e-40
24	0xb787a20f	-1.6168719e-05
25	0xb9ea9ac3	-0.00044747264
26	0xb4169c64	-1.4026733e-07
27	0x8000f919	-8.936e-41
28	0xb0ca1635	-1.4703746e-09
29	0x0002984b	2.38303e-40
30	0x0000938f	5.2934e-41
31	0xb0138ffa	-5.368289e-10
32	0xb92d86a5	-0.00016548725
33	0xbb6f1844	-0.003648297
34	0x80024fbd	-2.12276e-40
35	0x31d47dcf	6.184315e-09
36	0x00004940	2.6277e-41
37	0xbb0d52b1	-0.002156418
38	0x2c51bd87	2.9805895e-12
39	0x8001f10a	-1.78304e-40
40	0x8001c791	-1.63426e-40
41	0xb9e0c7a4	-0.00042873353
42	0xb6ffb2f3	-7.6204246e-06
43	0xb02ddf2f	-6.3254196e-10
44	0xb9a5f56a	-0.000316541
45	0x304f8ad5	7.5503453e-10
46	0xb985cf3d	-0.0002552214
47	0x80028b38	-2.33613e-40
48	0x0002d786	2.60986e-40
49	0xb5a99c04	-1.2636888e-06
50	0xbb09a9e2	-0.00210058
51	0x80039d94	-3.32035e-40
52	0xaf4e0f6e	-1.8741073e-10
53	0x381bc94a	3.7142345e-05
54	0xbab9c243	-0.0014172274
55	0x3093eff9	1.0763862e-09
56	0x80000d13	-4.69e-42
57	0x30906222	1.050527e-09
58	0x80002f88	-1.7051e-41
59	0xba2a2a7c	-0.0006491316
60	0xaf9ed7cd	-2.8893368e-10
61	0xba8d39bf	-0.0010774656
62	0xb8409711	-4.591706e-05
63	0xbb492ab4	-0.003069562
64	0x0004980d	4.21888e-40
65	0xba88cdaf	-0.0010437275
66	0x15806852	5.1863377e-26
67	0xb9578ee7	-0.00020557233
68	0x36441356	2.921753e-06
69	0x80003ae7	-2.113e-41
70	0x3bf3f4fe	0.007444977
71	0xb955252c	-0.0002032711
72	0xbc115595	-0.008870502
73	0x3c8a638d	0.016893173
74	0xbc1dbb6e	-0.009627206
75	0x83db596c	-1.2892193e-36
76	0x37f446b5	2.9119992e-05
77	0x8001dd1e	-1.71157e-40
78	0x350f16ef	5.3305024e-07
79	0x3ca1bfbb	0.019744745
80	0xb9a342b9	-0.00031139495
81	0xbbcce76f	-0.006253175
82	0x000a39e4	9.39122e-40
83	0xb6dfa03c	-6.6645716e-06
84	0xbc746c9a	-0.014918471
85	0xbbb620ee	-0.0055581247
86	0xbaf8e3f9	-0.001898884
87	0x800319bc	-2.84738e-40
88	0xbc8ad6b6	-0.016948085
89	0xbc1ac30c	-0.009445917
90	0xbc568873	-0.0130940555
91	0x80000f0f	-5.402e-42
92	0xb8bdcad5	-9.050003e-05
93	0x8382e83c	-7.694032e-37
94	0x8000bebb	-6.8421e-41
95	0xb8a6958c	-7.943352e-05
96	0xbc621731	-0.013799475
97	0xbc2c639d	-0.0105217965
98	0x800043f2	-2.4374e-41
99	0xb8dca38c	-0.000105208805
100	0x8003519e	-3.04785e-40
101	0xbc3d6771	-0.011560307
102	0x38072363	3.2219465e-05
103	0x3b039b22	0.002008148
104	0x00021ba4	1.93587e-40
105	0xbc4a0d3b	-0.012332256
106	0x3bfb77a2	0.0076741735
107	0xbb597051	-0.0033178518
108	0xbc4188cf	-0.011812403
109	0x370679ae	8.015353e-06
110	0xbc502366	-0.012703752
111	0x800062f3	-3.5496e-41
112	0x00000574	1.956e-42
113	0x3b355110	0.0027666725
114	0xbca8dea4	-0.020613976
115	0x00014184	1.15338e-40
116	0x38070d94	3.2199154e-05
117	0xbc3f6478	-0.011681668
118	0xbb058068	-0.0020370726
119	0xb94e1386	-0.00019652964
120	0x800163ba	-1.2761e-40
121	0xb8b4e46c	-8.625616e-05
122	0x261ea935	5.504658e-16
123	0xbcb24110	-0.02175954
124	0x37fdc468	3.0251409e-05
125	0xbbad1621	-0.005282179
126	0x3b8fa0c1	0.004383177
127	0xbc8da7ba	-0.017291892
128	0x00010fb8	9.7474e-41
129	0x80004ef9	-2.833e-41
130	0x0002c5dc	2.5465e-40
131	0x8000c8c3	-7.202e-41
132	0x0000592f	3.1993e-41
133	0x00008f2b	5.1359e-41
134	0x8000695e	-3.7799e-41
135	0x00006c23	3.8792e-41
136	0x00009206	5.2383e-41
137	0x800056af	-3.1096e-41
138	0x000010b7	5.996e-42
139	0x00031487	2.8287e-40
140	0x0000d70b	7.7143e-41
141	0x800159ea	-1.2409e-40
142	0x80010440	-9.336e-41
143	0x000044b7	2.465e-41
144	0x80002269	-1.2344e-41
145	0x80006422	-3.5921e-41
146	0x00027702	2.26363e-40
147	0x00000001	1e-45
148	0x80001e4e	-1.0871e-41
149	0x8000bcbc	-6.7705e-41
150	0x80008a47	-4.9605e-41
151	0x0003912c	3.27584e-40
152	0x800039fe	-2.0804e-41
153	0x807b4e8c	-1.1323943e-38
154	0x000051f8	2.9405e-41
155	0x80015f6b	-1.26065e-40
156	0x00006102	3.48e-41
157	0x0003336b	2.93952e-40
158	0x8001d0e5	-1.66773e-40
159	0x00003e9b	2.2459e-41
160	0x0000b7fa	6.5998e-41
161	0x00001c85	1.0231e-41
162	0x8003d913	-3.53378e-40
163	0x000038ec	2.042e-41
164	0x8000130b	-6.831e-42
165	0x000097b1	5.4417e-41
166	0x00003b73	2.1326e-41
167	0x8000d5f0	-7.6746e-41
168	0x80012bfc	-1.07614e-40
169	0x80002398	-1.2769e-41
170	0x80003068	-1.7365e-41
171	0x8000ac9e	-6.1923e-41
172	0x8000a8f6	-6.0612e-41
173	0x00003823	2.0138e-41
174	0x000089b2	4.9396e-41
175	0x00037998	3.19126e-40
176	0x0002789e	2.2694e-40
177	0x00005e96	3.3931e-41
178	0x000040f8	2.3306e-41
179	0x80006591	-3.6435e-41
180	0x0000c609	7.1042e-41
181	0x000010a2	5.967e-42
182	0x000041e8	2.3643e-41
183	0x0000a449	5.8934e-41
184	0x8004389e	-3.87652e-40
185	0x00000166	5.02e-43
186	0x00024823	2.09549e-40
187	0x8000aab3	-6.1235e-41
188	0x0000458d	2.495e-41
189	0x8000b84a	-6.611e-41
190	0x8000bf05	-6.8525e-41
191	0x800ff6ce	-1.466069e-39
192	0x3009ac41	5.0085097e-10
193	0x3e5e134f	0.21687053
194	0x9d11dbf2	-1.93043e-21
195	0x3d8d957b	0.06913277
196	0x3e621f74	0.22082311
197	0x3507f4b3	5.0647503e-07
198	0xbcbc0c7f	-0.022955177
199	0x3e5653a5	0.20930345
200	0x0d863c6a	8.272932e-31
201	0xbd1e6e2c	-0.038679287
202	0x3e2e7c74	0.17039663
203	0xaf8cab6c	-2.5587654e-10
204	0x3e05530f	0.13019966
205	0x80014977	-1.1819e-40
206	0x3abe2330	0.0014506336
207	0xbda04ea3	-0.07827499
208	0x3e4dff5f	0.20116948
209	0x3de0047e	0.10938357
210	0x00b1dff9	1.6335229e-38
211	0x3e4892ea	0.19587293
212	0x3ad4206b	0.0016183978
213	0xbdd8c5b8	-0.10584587
214	0x3dbdd864	0.09269789
215	0xb032dc37	-6.5068967e-10
216	0xbba7e337	-0.0051235217
217	0xbe7fc2e0	-0.24976683
218	0x8000af70	-6.2935e-41
219	0x80003d07	-2.1892e-41
220	0x3e6457ba	0.2229909
221	0x013221a2	3.2717567e-38
222	0x80006591	-3.6435e-41
223	0x3e47893e	0.19485947
224	0xbda79aef	-0.08183848
225	0xbe2fa348	-0.1715213
226	0x150fc4ff	2.9034023e-26
227	0x3dde3c54	0.108513504
228	0xb99101a8	-0.0002765779
229	0xbe140765	-0.14455946
230	0x3df71fed	0.12066636
231	0xb9f6ada5	-0.00047050152
232	0x19b516b8	1.8724137e-23
233	0xbd92c823	-0.07167079
234	0x80005b68	-3.279e-41
235	0x3e04efb1	0.1298206
236	0x3a19feea	0.0005874472
237	0x3e1f4cfa	0.15556708
238	0xbddbbf72	-0.10729875
239	0xb971219b	-0.0002299607
240	0x38cc3ac1	9.738422e-05
241	0x8001863e	-1.39993e-40
242	0xbe47f557	-0.19527183
243	0xa1b9e0da	-1.2595605e-18
244	0x3e1c1a05	0.152443
245	0xbd70e286	-0.05880978
246	0xbe01a892	-0.1266196
247	0x3e4cb8aa	0.19992319
248	0x0000cb49	7.2925e-41
249	0x3e4637b4	0.19357187
250	0x39963950	0.0002865293
251	0xbdf74e89	-0.12075526
252	0x3e35c188	0.17749608
253	0xbe0ff54a	-0.14058414
254	0x8001167b	-9.99e-41
255	0xbe4b5836	-0.19857869

col_net.4.bias f4 [32]
0	0xbbf100f6	-0.007354851
1	0xbc429aee	-0.011877758
2	0xaee5a755	-1.04434385e-10
3	0x3e682035	0.22668536
4	0x98ef8840	-6.191763e-24
5	0xbc78eeb7	-0.015193633
6	0xb9132eb3	-0.00014036409
7	0xa2af9212	-4.7588503e-18
8	0x3e1679ff	0.14694975
9	0xbd0f24a9	-0.03494707
10	0xb40975e6	-1.280201e-07
11	0xba692bcf	-0.00088947726
12	0x3d22e44c	0.039768502
13	0xbcb01948	-0.02149643
14	0x3da88d80	0.08230114
15	0x9df1a322	-6.3960844e-21
16	0x3d67975c	0.056540832
17	0x3e569e57	0.2095884
18	0x3e851752	0.25994354
19	0xb6b790ed	-5.4706966e-06
20	0x3ea96eff	0.33092496
21	0xbc182198	-0.009285353
22	0x3d65e14d	0.056123067
23	0xbc507263	-0.012722584
24	0x3d45d66f	0.048300203
25	0xa4ab6138	-7.4324124e-17
26	0x3e2de729	0.16982712
27	0xb01ed142	-5.777744e-10
28	0xb5894f90	-1.0230451e-06
29	0xbc011a85	-0.007879858
30	0xbce11e9a	-0.027480412
31	0x3d887dd1	0.066646226

combined.0.weight f4 [32, 64]
0	0xbe0aeb84	-0.13566405
1	0x3b48bfce	0.0030631903
2	0xbc9cec73	-0.019155717
3	0xbe3be522	-0.18349126
4	0x3cd21eca	0.025649447
5	0xbd90a8d4	-0.070634514
6	0x3ce102fa	0.02746724
7	0xbdcfb5c4	-0.10142091
8	0xbe1063cc	-0.1410057
9	0xbdfa6437	-0.12226146
10	0xbd21573a	-0.039389826
11	0xbde714e8	-0.112832844
12	0x3d97cc39	0.07411999
13	0x3da262a3	0.0792897
14	0xbd924e53	-0.071438454
15	0xbcf112f3	-0.029427981
16	0xb909c77d	-0.00013139653
17	0x3bcf9439	0.006334808
18	0x3e3bbd27	0.18333875
19	0x3c97d4a1	0.018534007
20	0xbca8c7aa	-0.02060302
21	0xbd8dad22	-0.06917788
22	0xbe616269	-0.22010197
23	0x3ca55b69	0.02018519
24	0x3b9ca16b	0.0047799847
25	0x367a5afb	3.730586e-06
26	0x00005ec8	3.4001e-41
27	0x3db5fd16	0.08886163
28	0xbd089f80	-0.033355236
29	0xbd967dc3	-0.07348206
30	0x3d873abe	0.06603001
31	0xbe485b17	-0.19565998
32	0x3b511e47	0.0031908916
33	0x3bd2fdb6	0.006438936
34	0x80009acf	-5.5535e-41
35	0x3e2f3fc4	0.17114168
36	0x94b540da	-1.8301909e-26
37	0x3baaecd9	0.0052162227
38	0xab3af239	-6.6416626e-13
39	0x8000a4a1	-5.9058e-41
40	0xbb91761d	-0.004439129
41	0x3a60afbc	0.00085711083
42	0x0000a1d7	5.8057e-41
43	0x31d97404	6.3287207e-09
44	0x3ddc017f	0.10742473
45	0xbbfed643	-0.007777007
46	0xbce18cb1	-0.027532907
47	0x9d04b252	-1.7562244e-21
48	0x3e03a404	0.12855536
49	0x3dce15f8	0.10062784
50	0x3dcfd6b7	0.101483755
51	0x33621c17	5.2645273e-08
52	0x3df935dd	0.12168477
53	0xbd1d7228	-0.038438946
54	0x3df359e5	0.118823804
55	0x3b039b5b	0.0020081613
56	0x3dbafec4	0.09130624
57	0x8000e645	-8.2605e-41
58	0x3d5df57d	0.054189194
59	0x0000bcda	6.7747e-41
60	0xb4a87145	-3.1374853e-07
61	0x3c9698ce	0.01838341
62	0x3bd74540	0.0065695345
63	0x3deae558	0.11469525
64	0x3e8aed15	0.27134004
65	0x3a6f3f81	0.0009126589
66	0xbe5acc1f	-0.21366929
67	0x3e831833	0.256044
68	0xbe93e741	-0.2888737
69	0xbce805c0	-0.028323054
70	0xbcf56d65	-0.02995939
71	0x3e6a74a7	0.22896062
72	0x3ebdfdcc	0.37107694
73	0x3e284af1	0.16434838
74	0x3d73a7a6	0.059486054
75	0x3df62ff0	0.12020862
76	0xbe413b8b	-0.1887037
77	0xbdb03d81	-0.08605481
78	0x3e6ae197	0.22937618
79	0x3d90d1ec	0.070712894
80	0xbaf0ab93	-0.001836168
81	0xbd5125bf	-0.051061388
82	0xbe911efc	-0.28343952
83	0xbc110b31	-0.008852766
84	0xbca0e6e9	-0.019641357
85	0xbc61a567	-0.013772345
86	0x3e85085c	0.2598294
87	0xbe0bedd1	-0.13664939
88	0xbadb3718	-0.0016724793
89	0x2de450cf	2.5956485e-11
90	0x00003d8b	2.2077e-41
91	0xbe13201e	-0.1436772
92	0x3e1cd648	0.15316117
93	0x3e29679e	0.16543433
94	0xbe935471	-0.2877536
95	0x3e380fbc	0.17974752
96	0xbb0d2d42	-0.0021541868
97	0xbc749a71	-0.0149294
98	0x80009ab5	-5.5498e-41
99	0xbe4b51c1	-0.19855405
100	0x96f67e55	-3.982317e-25
101	0xbc819d5a	-0.015822101
102	0x1c025302	4.3120677e-22
103	0x0001682d	1.29207e-40
104	0xbcd20a7b	-0.025639763
105	0xba8b9d92	-0.0010651818
106	0x000079ae	4.365e-41
107	0x375c758c	1.314039e-05
108	0xbd9f2a25	-0.0777171
109	0xbd592397	-0.053012457
110	0x3db60abe	0.08888768
111	0x9d6f2399	-3.164979e-21
112	0xbdbc751f	-0.092020266
113	0xbe0608bf	-0.13089274
114	0xbdb7b3b2	-0.08969821
115	0x35b53938	1.3502204e-06
116	0xbe2232e3	-0.15839724
117	0x3c482f80	0.012218356
118	0xbdbbac1e	-0.09163688
119	0x39c0c995	0.00036771284
120	0xbd7cac78	-0.061687917
121	0x0000e034	8.0429e-41
122	0xbd3e5cfd	-0.0464754
123	0x28cc2ff7	2.2669351e-14
124	0x3221e0f5	9.422583e-09
125	0xbcc30893	-0.0238078
126	0x3d251419	0.04030237
127	0xbdc9d4e8	-0.09855062
128	0xbd911984	-0.07084945
129	0x3caf4b41	0.021398189
130	0x3e01a7fd	0.12661739
131	0xbe2d27f5	-0.16909774
132	0x3e1a4719	0.15066184
133	0xbdb43835	-0.08799783
134	0x3ba5e3a2	0.0050625363
135	0xbe4b816d	-0.19873591
136	0xbe0ff16c	-0.14056939
137	0xbe0f898c	-0.14017314
138	0xbc44338b	-0.011975179
139	0xbe38f7cb	-0.18063276
140	0x3e4be406	0.19911203
141	0x3e150660	0.14553213
142	0xbd32b3e7	-0.0436286
143	0xbcf6e7f2	-0.030139897
144	0x2fc04865	3.4976036e-10
145	0xbb131ecb	-0.0022448774
146	0x3d103878	0.035210103
147	0x3d23b6f7	0.03996941
148	0x3d8175d5	0.06321303
149	0xbe53095b	-0.20609038
150	0xbdd9d101	-0.106355675
151	0xbd91db4f	-0.07121908
152	0x3bcf0264	0.0063174237
153	0xb68bbcc9	-4.1645003e-06
154	0x8000cf93	-7.4464e-41
155	0x3dc3c787	0.09559541
156	0xbd66af81	-0.056319717
157	0xbc447d6d	-0.011992794
158	0x3d3502f5	0.044192273
159	0xbe4506db	-0.19240896
160	0x318e5580	4.142464e-09
161	0x3b81303a	0.0039425166
162	0x00005c8a	3.3197e-41
163	0x3e089f9c	0.13342136
164	0x8dc8975f	-1.2362393e-30
165	0x336afaf3	5.4710608e-08
166	0x24defc9e	9.67051e-17
167	0x0000b66f	6.5445e-41
168	0x3b82efe8	0.003995884
169	0xb894636e	-7.07571e-05
170	0x80004c92	-2.7468e-41
171	0xb1f89bfa	-7.2354824e-09
172	0x3d8c9e50	0.06866133
173	0x3c3c16c5	0.011480038
174	0xbe6a9c59	-0.22911204
175	0x9ecbcca5	-2.15781e-20
176	0x3dc8d474	0.09806147
177	0x3d924317	0.071417026
178	0x3e06f887	0.13180743
179	0x25c19202	3.3579102e-16
180	0x3e446f3d	0.19183059
181	0xbe5aaf4d	-0.21355934
182	0x3db454f2	0.088052645
183	0xb8778503	-5.9013266e-05
184	0x3d4f8f13	0.050673556
185	0x8000b021	-6.3183e-41
186	0x3d98f6a8	0.07468921
187	0x800014ac	-7.416e-42
188	0xb38a370c	-6.436139e-08
189	0x3c145339	0.009053045
190	0x3b83b0aa	0.0040188627
191	0x3d7ab574	0.061208203
192	0xbcb3c3a3	-0.021943873
193	0xbc181b03	-0.009283784
194	0x3d9b6f98	0.07589644
195	0xbe03fe3f	-0.12889956
196	0x3e2de3ea	0.16981474
197	0xbd94a5b4	-0.07258168
198	0x3ddcacbc	0.10775134
199	0x3d3dca13	0.04633529
200	0xbcbfd211	-0.023415597
201	0xbdc880b9	-0.09790177
202	0xbd9189e5	-0.071063794
203	0xbec7bdcc	-0.3901199
204	0x3e8f1ccb	0.27951655
205	0x3e5ca3b3	0.21546821
206	0xbc927f14	-0.017882861
207	0x3cf3d0af	0.029762594
208	0xbc130e38	-0.008975558
209	0x3b9106eb	0.0044258735
210	0xbd33bbb0	-0.043880165
211	0xbd053eec	-0.03253071
212	0x3d5a562c	0.053304836
213	0xbd75f2f1	-0.06004614
214	0xbe00013e	-0.12500474
215	0x3dbf7d7d	0.09350107
216	0x3c742cb4	0.014903236
217	0x39a0e1a3	0.0003068569
218	0x0000c48f	7.0512e-41
219	0xbc2ded3d	-0.010615644
220	0xbc9cbfac	-0.019134365
221	0x3c16a3ce	0.0091943275
222	0x3db4d15c	0.08828995
223	0xbe2c0e25	-0.1680227
224	0xb9828a7e	-0.00024898717
225	0x3b9b6ad3	0.004742959
226	0x000ed313	1.361416e-39
227	0xbd84510c	-0.06460771
228	0x116afe51	1.8537712e-28
229	0x3c46316f	0.012096747
230	0x30b55256	1.3192885e-09
231	0x00011f8a	1.0315e-40
232	0x3d1a09b5	0.037606914
233	0x3ade109c	0.0016942206
234	0x11d8e58d	3.4220263e-28
235	0x319ae427	4.507928e-09
236	0xbd8ce0a3	-0.068787836
237	0x3dc21fc7	0.09478717
238	0xbdca34e6	-0.09873371
239	0x1fdccbee	9.3511e-20
240	0xbd6b7ce5	-0.057492156
241	0xbd854ea0	-0.06509137
242	0xbd8bb5ac	-0.068217605
243	0x3653eb10	3.1578275e-06
244	0x3cb5ecb2	0.022207592
245	0xbe3dafe9	-0.18524136
246	0xbd68e147	-0.056855466
247	0xb7128828	-8.7339795e-06
248	0xbd51f5c4	-0.05125977
249	0x88c53add	-1.1870345e-33
250	0xbd029e3b	-0.03188918
251	0x052c55a1	8.103129e-36
252	0x34348c5b	1.6814867e-07
253	0x3c177e02	0.009246351
254	0x3cedbe46	0.029021394
255	0xbd3eac23	-0.04655088

combined.0.bias f4 [32]
0	0x3d962e6c	0.07333073
1	0x3e3da1e7	0.18518792
2	0x3dd1fc43	0.10253193
3	0x3eb32696	0.34990376
4	0x3e9982b9	0.29982546
5	0x3e8b9ab2	0.2726646
6	0x3db85206	0.0900002
7	0xbd950c3e	-0.07277726
8	0xbd0f699c	-0.035012826
9	0x3e56941a	0.20954934
10	0xbd9baa14	-0.07600799
11	0x3e613339	0.21992196
12	0x3cabbd7a	0.020964373
13	0x3e154158	0.14575708
14	0x3c6c2df8	0.014415257
15	0xbc998fdd	-0.018745357
16	0x3e3f57e4	0.18685871
17	0x3ddaf75e	0.10691713
18	0x3e09aec0	0.13445568
19	0x3d1f2430	0.03885287
20	0x3e40cce1	0.18828155
21	0x3db862dd	0.09003232
22	0x3e18e859	0.14932384
23	0x3da984ba	0.08277269
24	0x3e490b09	0.19633116
25	0x3c57e167	0.013176299
26	0x3d2b16b2	0.04176969
27	0x3cb1c848	0.021701947
28	0x3c10a27c	0.008827802
29	0x3ddb31d0	0.1070286
30	0xbd21565e	-0.039389007
31	0x3dc84f88	0.097807944

combined.3.weight f4 [16, 32]
0	0xbd349ad9	-0.044092987
1	0xbd2e7020	-0.0425874
2	0xbe736c2f	-0.23771738
3	0x3c69ead1	0.014277176
4	0xbd2dceef	-0.042433675
5	0xbd6c7db8	-0.057737082
6	0x3e0ce595	0.13759454
7	0x3eb3c826	0.3511364
8	0xbe948c2a	-0.29013187
9	0xbd9e8121	-0.07739473
10	0xbe540a69	-0.20707096
11	0xbcfe1700	-0.031016827
12	0xbcaa857e	-0.020815607
13	0xbe2a0070	-0.1660173
14	0x3e3379dd	0.17526956
15	0xbe88fab3	-0.26753768
16	0xbdd79797	-0.1052696
17	0x3e2d423a	0.16919795
18	0x3e249327	0.16071759
19	0x3da38b1e	0.07985519
20	0x3e0fdb3d	0.14048477
21	0x3e573f8a	0.21020332
22	0xbcbbe9c0	-0.02293861
23	0xbe570c4b	-0.21000783
24	0xbdeb8fed	-0.11502061
25	0x3e03ab4e	0.12858316
26	0xbe7f2e75	-0.24920066
27	0x3e347db7	0.17626081
28	0xbe7b0eaa	-0.24517313
29	0x3ebd953d	0.37027922
30	0x3e311083	0.17291455
31	0x3ea62265	0.32448116
32	0x3c985650	0.018595845
33	0xbf007f42	-0.5019418
34	0x3dc16293	0.0944263
35	0x3e075b00	0.13218307
36	0x3ddede4a	0.10882242
37	0x3db305bd	0.08741329
38	0xbccd5818	-0.02506642
39	0xbe3da149	-0.18518557
40	0x3d299d6b	0.04140989
41	0x3d5b9f50	0.05361873
42	0x3d80f4ca	0.0629669
43	0x3d57dafd	0.052699078
44	0x3d67744e	0.0565074
45	0xbc519fec	-0.012794476
46	0xbe631eee	-0.22179767
47	0x3d41cf50	0.04731685
48	0x3e3f9664	0.18709713
49	0x3dda675b	0.10664245
50	0xbe866567	-0.2624924
51	0xbee3a41f	-0.44461152
52	0x3e38c334	0.18043214
53	0x3e2e8654	0.1704343
54	0xbeb7aa6d	-0.35872212
55	0x3dca53cb	0.098792635
56	0x3e4ab99f	0.19797371
57	0xbe86ab2b	-0.26302466
58	0x3c92f86c	0.017940722
59	0xbe33d372	-0.17561129
60	0x3d3589d2	0.04432089
61	0xbe11e135	-0.14246066
62	0xbe9280d6	-0.2861392
63	0xbe1c2d5b	-0.15251677
64	0xbe3ced3a	-0.1844987
65	0x3d8f6f83	0.07003691
66	0xbe4160ee	-0.18884632
67	0x3d32d642	0.043661363
68	0xbd721711	-0.05910403
69	0xbd0b488c	-0.034004733
70	0x3e42ed0a	0.19035736
71	0x3ecb23af	0.39675662
72	0xbe9200b4	-0.2851616
73	0xbe1ddc0c	-0.15415972
74	0xbe333c76	-0.17503533
75	0xbe36b7ab	-0.17843501
76	0xbdcda991	-0.10042108
77	0xbe86bae5	-0.26314464
78	0x3e7d2f48	0.24725068
79	0xbe799fe8	-0.24377406
80	0xbe54fd6d	-0.207998
81	0x3e76b02f	0.24090646
82	0x3e14dd64	0.14537579
83	0x3d86b12a	0.0657676
84	0x3e5e31ee	0.21698734
85	0x3e67fa36	0.22654042
86	0xbc95396b	-0.018215856
87	0xbe522528	-0.20521986
88	0xbda422dc	-0.080144614
89	0x3e12093f	0.1426134
90	0xbe52dba9	-0.20591606
91	0x3e85f809	0.26165798
92	0xbe642206	-0.22278604
93	0x3eb2cca6	0.3492176
94	0x3dd3539f	0.10318684
95	0x3eb0060f	0.34379622
96	0xbd8e2781	-0.069411285
97	0xbbe63ee8	-0.007026542
98	0xbe8781d5	-0.2646624
99	0xbb81151e	-0.003939285
100	0xbd376f3e	-0.044783823
101	0xbd9b6ec2	-0.07589485
102	0x3dfccc65	0.12343673
103	0x3ebbd90a	0.36689025
104	0xbe9c481d	-0.30523768
105	0xbdb59a4f	-0.08867323
106	0xbe6e1abd	-0.23252387
107	0xbd1f9fec	-0.038970873
108	0xbcb736ff	-0.022365091
109	0xbe3acc98	-0.18242109
110	0x3db38e4e	0.08767377
111	0xbe85fc9c	-0.26169288
112	0xbdfa10e2	-0.122102514
113	0x3e6d4b4f	0.23173259
114	0xbd3d26ca	-0.04617957
115	0x3d264824	0.040596142
116	0x3e1e5e7f	0.15465735
117	0x3de519b6	0.111865446
118	0xbcd8a1d0	-0.026444346
119	0xbe7a56f9	-0.2444724
120	0xbe0dab18	-0.13834798
121	0x3e05ebd5	0.13078244
122	0xbe910351	-0.28322843
123	0x3e8098e8	0.25116658
124	0xbe90d57b	-0.28287873
125	0x3ebeb5e4	0.37248147
126	0x3c8420c4	0.016128905
127	0x3eb0bbab	0.3451818
128	0x3bb64d98	0.005563449
129	0xbe9b1f75	-0.30297437
130	0xbc422221	-0.011848957
131	0x3e0a0697	0.13479076
132	0x3dcb481a	0.09925862
133	0x3e059f3a	0.13049021
134	0xbd7a85bc	-0.061162695
135	0xbdfc0965	-0.12306479
136	0x3d0f3766	0.03496494
137	0x3d33cf23	0.043898713
138	0x3d990d5c	0.07473251
139	0x3a5a213d	0.0008320993
140	0x3d5206e4	0.051276103
141	0x3d40e0f2	0.047089525
142	0xbe04677b	-0.129301
143	0x3c50a037	0.012733511
144	0x3d822072	0.06353845
145	0x3dce2397	0.10065382
146	0xbe1ab113	-0.15106611
147	0xbe9ffbf0	-0.312469
148	0x3d0b75d9	0.034047935
149	0x3da91fbc	0.08258006
150	0xbe8d5e0f	-0.27610824
151	0xbc2f1871	-0.01068698
152	0x3dad0a72	0.08449258
153	0xbe156bfa	-0.14591971
154	0x3d433779	0.047660325
155	0xbdd93422	-0.10605647
156	0x3cae1f86	0.021255266
157	0xbd949b3f	-0.07256173
158	0xbe2d42b5	-0.16919978
159	0xbdbe66bb	-0.09296938
160	0xbe3a5d46	-0.18199643
161	0x3c75ff00	0.01501441
162	0xbe21cd65	-0.15801008
163	0x3d2f9e7a	0.042875744
164	0xbd4be989	-0.049783263
165	0xbcf27d04	-0.029600628
166	0x3defe569	0.117136784
167	0x3ec17caf	0.3779044
168	0xbe6aa86a	-0.22915807
169	0xbe15d537	-0.14632116
170	0xbe272c0d	-0.16325398
171	0xbe220f65	-0.15826185
172	0xbda2c5d3	-0.07947888
173	0xbe8176d8	-0.25285983
174	0x3e591ed9	0.21203174
175	0xbe54dcfa	-0.20787421
176	0xbe596c7f	-0.21232794
177	0x3e845366	0.25844878
178	0x3d03cb17	0.032176103
179	0x3dcbbb1c	0.09947798
180	0x3e4afc9a	0.19822922
181	0x3e611c3b	0.21983425
182	0xbc894f6e	-0.016761508
183	0xbe27aa76	-0.1637362
184	0xbd8aab5f	-0.06770968
185	0x3e146f75	0.14495642
186	0xbe28a6b0	-0.16469836
187	0x3e6217d9	0.2207941
188	0xbe4c8cc0	-0.19975567
189	0x3ebe18f4	0.37128413
190	0x3e45ac8c	0.19304103
191	0x3eb08a1e	0.34480375
192	0x3c98167a	0.018565405
193	0xbd987384	-0.07443908
194	0x3ca11c4f	0.019666819
195	0x3e645813	0.22299223
196	0x3d833c57	0.06407993
197	0x3e3a6d0c	0.1820566
198	0xbe53e08a	-0.20691124
199	0xbe5f8a96	-0.2183021
200	0x3d4afa8c	0.049555346
201	0x3e0a2e4f	0.13494228
202	0x3cf3d98d	0.029766822
203	0x3e120156	0.14258322
204	0x3d723f1c	0.059142217
205	0x3d38b039	0.045089934
206	0xbebacdd2	-0.36485153
207	0x3da1a61a	0.078930095
208	0x3e1b16e5	0.15145452
209	0xbd3e2148	-0.04641846
210	0xbe7be1e3	-0.24597888
211	0xbce0ee9b	-0.027457526
212	0xbc8f7985	-0.017514
213	0xbdeb585d	-0.11491463
214	0x3d976aab	0.07393392
215	0x3d8f3919	0.069933124
216	0x3db16b91	0.08663095
217	0xbe9639b1	-0.2934089
218	0x3d8b7f5d	0.06811402
219	0xbea441d2	-0.32081467
220	0x3d8c101c	0.0683901
221	0xbe396d53	-0.1810811
222	0xbeb2de43	-0.34935197
223	0xbe4dfd77	-0.2011622
224	0x3c55c9f8	0.013048641
225	0xbe86c893	-0.263249
226	0x3dc8663b	0.09785124
227	0x3e289816	0.16464266
228	0x3e027428	0.12739623
229	0x3e213592	0.15743092
230	0xbd23b16c	-0.039964125
231	0xbe299520	-0.16560793
232	0xbd66d687	-0.056356933
233	0x3dc366a6	0.09541063
234	0x3e04ac40	0.12956333
235	0x3e0f0882	0.13968089
236	0x3d65f765	0.056144137
237	0x3e0483cd	0.12940903
238	0xbe456f34	-0.19280702
239	0x3d8b1cfc	0.06792638
240	0x3e0336ff	0.12813948
241	0x3dadfde3	0.08495691
242	0xbe29e065	-0.16589506
243	0xbea1f9c8	-0.3163588
244	0x3dd27409	0.10276038
245	0x3d9ed9be	0.07756375
246	0xbe9e73b9	-0.30947664
247	0xbd31172b	-0.043234985
248	0x3dc5539d	0.096350886
249	0xbe4db378	-0.20087993
250	0x3d9d19af	0.076709144
251	0xbe2f5fd9	-0.17126407
252	0xbc6fd9c1	-0.014639319
253	0xbde12958	-0.10994214
254	0xbe81e6c9	-0.25371388
255	0xbe000c7b	-0.12504761
